reinforcement_learning/models_cartpole/dqn_agent.pt (torch, 654615 bytes, 6 tensors)

fc1.weight f4 [400, 4]
0	0xbec91dba	-0.39280492
1	0x3e7e1f9f	0.2481675
2	0x3f022d23	0.50850123
3	0x3ea39ea8	0.31956983
4	0xbdace47f	-0.0844202
5	0xbee34fd6	-0.44396847
6	0x3e0f4555	0.13991292
7	0xbefbca39	-0.4917772
8	0xbe8270e3	-0.2547675
9	0xbd9ab6c3	-0.0755439
10	0xbf17e96f	-0.59340566
11	0xbe101a90	-0.14072633
12	0xbec32244	-0.3811208
13	0x3eba1a52	0.36348206
14	0x3e9d23e3	0.30691442
15	0xbe94c0e3	-0.2905341
16	0x3e025a44	0.12729746
17	0xbeb81469	-0.35953072
18	0xbe47687b	-0.1947345
19	0x3d4e6737	0.050391402
20	0xbe88fa81	-0.2675362
21	0xbefd6395	-0.49490038
22	0xbe34f8c6	-0.17673025
23	0xbe6f9637	-0.23397146
24	0x3e8b8088	0.272465
25	0x3ec4c281	0.38429645
26	0xbf4b58ce	-0.7943238
27	0xbe86aadb	-0.26302227
28	0xbc79149a	-0.015202666
29	0x3ec78664	0.3896972
30	0xbe06c808	-0.13162243
31	0xbde68f2b	-0.11257776
32	0x3e936c6d	0.2879366
33	0x3eb7665e	0.35820287
34	0x3f07f918	0.5311446
35	0x3ee5d485	0.44888702
36	0xbef4ddf0	-0.47825575
37	0x3e44b871	0.19210984
38	0x3e81e95a	0.25373346
39	0x3edb4f87	0.42834112
40	0xbdfc6ddb	-0.12325641
41	0xbea47865	-0.32123104
42	0xbd42610b	-0.04745583
43	0xbeb89598	-0.3605163
44	0x3ea7c827	0.32769892
45	0x3dfa7d27	0.12230902
46	0xbf03cf78	-0.5148845
47	0xbde660dd	-0.11248944
48	0x3ef9c301	0.4878159
49	0xbe89d4cd	-0.26920167
50	0xbe23433d	-0.15943618
51	0xbedf684e	-0.43634266
52	0xbebbcdf3	-0.36680564
53	0x3e88f3c7	0.26748487
54	0x3e88d203	0.26722726
55	0xbeaa74a5	-0.33292118
56	0xbd999917	-0.07499903
57	0x3d877e7c	0.06615922
58	0x3f4d22a1	0.80130965
59	0xbe3a8b2f	-0.18217157
60	0xbefa409c	-0.48877418
61	0x3ece1cbf	0.40256307
62	0x3d7b8e20	0.061414838
63	0x3f068d65	0.525595
64	0x3ee75094	0.45178664
65	0xbdf00c24	-0.11721066
66	0xbf10f4fc	-0.56623816
67	0x3e97310c	0.29529607
68	0xbe7009ba	-0.2344121
69	0x3eac338d	0.3363308
70	0x3f61601b	0.8803727
71	0xbd121754	-0.03566678
72	0xbd972d5d	-0.07381699
73	0x3e0cf0e9	0.13763775
74	0xbe838829	-0.2568982
75	0x3e78fc36	0.24314961
76	0x3d97150c	0.07377061
77	0xbe601489	-0.21882834
78	0x3ed133d7	0.40859863
79	0x3e8f515f	0.2799177
80	0x3ee3de4d	0.4450554
81	0xbd440c14	-0.04786308
82	0xbf2fae25	-0.686251
83	0xbee63c40	-0.44967842
84	0xbdabab4e	-0.08382283
85	0x3e8a9692	0.27068
86	0x3ed51c3e	0.4162311
87	0x3e896389	0.26833752
88	0x3e115bf5	0.14195235
89	0xbe5fd037	-0.21856771
90	0xbf0d5943	-0.5521433
91	0x3d567eb4	0.052366927
92	0x3e1c9a57	0.15293251
93	0xbea20bce	-0.3164963
94	0xbf818382	-1.0118258
95	0xbee59a52	-0.448443
96	0x3f139f17	0.57664627
97	0x3e700643	0.23439889
98	0xbd3a07e0	-0.045417666
99	0xbe9b5fd3	-0.30346546
100	0x3e42701a	0.18988076
101	0xbee3fdd6	-0.445296
102	0x3e433c1a	0.19065896
103	0x3daf9d39	0.0857491
104	0x3d919cc1	0.071099766
105	0xbd583841	-0.052788023
106	0xbebe6140	-0.3718357
107	0xbea7f6c1	-0.32805446
108	0xbe8843ec	-0.2661432
109	0xbed1c2d1	-0.40968946
110	0x3eaf7601	0.34269717
111	0x3eb04349	0.34426335
112	0xbe8e0b3d	-0.2774295
113	0xbd83fea4	-0.06445053
114	0x3f4ff1e7	0.8122849
115	0xbe7b24e4	-0.24525791
116	0xbe201daf	-0.15636323
117	0x3e09816d	0.13428278
118	0x3f2f4b55	0.6847432
119	0x3eb75f8c	0.35815084
120	0xbec1c9ec	-0.37849367
121	0x3eac92a1	0.3370562
122	0xbf11e1df	-0.56985277
123	0xbe80b4b1	-0.25137857
124	0xbe25750b	-0.1615793
125	0x3e81388b	0.2523845
126	0x3eb026ec	0.34404695
127	0x3dfd628f	0.12372314
128	0xbe878fa3	-0.26476774
129	0x3d8e471e	0.06947158
130	0x3d7e6ad3	0.062113594
131	0xbebac555	-0.36478677
132	0x3e8f677d	0.28008643
133	0xbe33786b	-0.17526405
134	0xbf66539e	-0.8997134
135	0xbe979725	-0.29607502
136	0x3ef50709	0.4785693
137	0xbd40fbb5	-0.047115047
138	0xbe7e3239	-0.24823846
139	0x3c6ab216	0.014324686
140	0x3c748ead	0.014926595
141	0x3cf7599b	0.030194094
142	0x3e8f81a1	0.28028587
143	0xbe023895	-0.12716897
144	0xbef48f8f	-0.47765777
145	0xbdcc0184	-0.099612266
146	0x3ee90587	0.4551203
147	0x3e83da14	0.25752318
148	0x3ec22595	0.37919298
149	0xbd898807	-0.06715398
150	0xbf6c8251	-0.9238635
151	0x3e98934e	0.29799885
152	0x3e597714	0.21236831
153	0x3ed814c9	0.42203358
154	0xbf62868a	-0.8848654
155	0xbec8c146	-0.39209956
156	0x3d944099	0.072388835
157	0x3e920a36	0.28523415
158	0x3f45e767	0.77306217
159	0x3e845bf5	0.25851408
160	0x3e0e41c2	0.13892272
161	0xbeab3b86	-0.3344385
162	0xbdd67494	-0.10471454
163	0x3d83f70d	0.064436056
164	0x3d5105d5	0.051030952
165	0xbdecc3bb	-0.1156077
166	0x3bc8b1f3	0.006124729
167	0x3ea76a07	0.3269808
168	0xbf05f58f	-0.5232782
169	0x3edd2111	0.4318929
170	0x3dafbdac	0.08581099
171	0x3f1219ed	0.5707081
172	0x3de29829	0.110641785
173	0x3e1802c7	0.1484481
174	0x3f53de0b	0.82760686
175	0xbdfec676	-0.12440197
176	0xbede39a7	-0.4340336
177	0xbe4b5cca	-0.19859615
178	0x3f45466a	0.7706057
179	0xbe91bccf	-0.28464362
180	0x3eafc686	0.3433115
181	0xbe0a1186	-0.13483247
182	0xbe56c16b	-0.2097222
183	0xbed02d3a	-0.40659505
184	0xbe958dee	-0.29209846
185	0xbea69f53	-0.3254343
186	0x3f0361cb	0.51321095
187	0x3ea375ae	0.3192572
188	0xbe978218	-0.2959144
189	0x3ea6bbbe	0.3256511
190	0x3ecf34c6	0.4046995
191	0x3e8e7ed0	0.27831125
192	0x3e282b98	0.1642288
193	0x3e7f18c9	0.24911799
194	0x3effedb8	0.49986053
195	0x3ea0cf04	0.3140794
196	0x3ee13103	0.43982705
197	0xbead6ebc	-0.33873546
198	0xbf0809bb	-0.5313985
199	0xbe66a01d	-0.22522016
200	0x3bdaf440	0.006681949
201	0x3e93af8f	0.28844878
202	0xbe04b398	-0.12959135
203	0x3e0fbeb2	0.14037588
204	0xbeafb5ec	-0.34318483
205	0xbe4dbc19	-0.20091285
206	0x3e9da3f9	0.30789164
207	0x3eca87f0	0.39556837
208	0x3b83853b	0.004013685
209	0xbd1dcce9	-0.038525496
210	0xbedcb751	-0.4310861
211	0xbe6cfffb	-0.23144524
212	0xbec57c04	-0.3857118
213	0xbc77a0f6	-0.01511406
214	0xbec26444	-0.37967122
215	0xbee632c4	-0.44960606
216	0xbec145a7	-0.37748453
217	0x3ef24518	0.4731834
218	0x3e2b1e16	0.16710696
219	0xbea4fad6	-0.32222623
220	0x3d685090	0.056717455
221	0xbce76b20	-0.028249323
222	0xbe978cfc	-0.2959975
223	0x3d70ab40	0.058757067
224	0xbde92e92	-0.11385836
225	0x3d714e24	0.05891241
226	0xbe5ae851	-0.21377684
227	0x3e883a0f	0.26606795
228	0x3da4824d	0.080326654
229	0xbcfa0af3	-0.0305228
230	0x3f21dbdb	0.632261
231	0x3dd2a1a2	0.10284735
232	0xbe9fa610	-0.31181383
233	0x3d8fd09f	0.07022213
234	0xbe9cff61	-0.3066359
235	0x3d11a9ac	0.035562202
236	0x3ecd9949	0.4015601
237	0x3eb89fe5	0.3605949
238	0xbf4a1fe8	-0.78954935
239	0x3da2c631	0.07947958
240	0xbe704e20	-0.23467302
241	0xbc00b820	-0.007856399
242	0x3ef5668c	0.479298
243	0x3e9218ae	0.28534454
244	0x3ecf21a2	0.40455347
245	0x3dad3ab6	0.08458464
246	0x3e68317f	0.22675131
247	0x3e11e931	0.14249112
248	0x3e365ee6	0.17809638
249	0xbc983b11	-0.018582853
250	0xbf1266fc	-0.5718839
251	0xbe8ebaa7	-0.2787678
252	0xbed8c574	-0.42338145
253	0x3dc5b492	0.09653582
254	0xbec74c28	-0.3892529
255	0x3d92b1f4	0.07162848

fc1.bias f4 [400]
0	0xbe50287e	-0.20327947
1	0xbf12704b	-0.57202595
2	0xbdc3b631	-0.09556235
3	0xbe47d064	-0.19513088
4	0x3dbed99f	0.09318852
5	0xbecb6ac6	-0.397299
6	0x3e82ccdb	0.25546917
7	0xbe1786cd	-0.14797516
8	0xbe05d317	-0.13068806
9	0xbedf10d7	-0.43567535
10	0xbea0b3fb	-0.31387314
11	0x3ee99e27	0.45628473
12	0xbe8ba43e	-0.27273744
13	0xbe900981	-0.2813225
14	0x3e2f868e	0.17141172
15	0x3f04845b	0.5176446
16	0x3dd1a74c	0.102369875
17	0x3dc7852f	0.097422
18	0x3efa13bc	0.4884318
19	0xbea156c0	-0.31511497
20	0xbef62366	-0.48073882
21	0x3e68c1ff	0.22730254
22	0x3e0d017f	0.13770102
23	0xbea634bf	-0.32462117
24	0xbe4c493e	-0.19949815
25	0x3eb58fc5	0.3546125
26	0xbe8990d1	-0.268683
27	0x3ea269d2	0.3172136
28	0x3d84d530	0.06485975
29	0x3e6be577	0.23036753
30	0xbae41f77	-0.0017404397
31	0x3e9a9a6e	0.30195946
32	0x3e87bc28	0.2651074
33	0xbe7e94ac	-0.24861401
34	0x3eaa49ba	0.33259374
35	0x3e97530a	0.2955554
36	0xbea36630	-0.319139
37	0x3e8f8f91	0.2803922
38	0xbedfdc97	-0.43722984
39	0x3e6b2ee7	0.2296711
40	0x3df04288	0.1173144
41	0x3e8c58cc	0.27411497
42	0xbebf1dd8	-0.37327456
43	0x3e8233bd	0.25430098
44	0x3ef394b2	0.47574383
45	0xbec387f1	-0.38189653
46	0xbebf96a8	-0.3741963
47	0xbecf9fe0	-0.40551662
48	0xbca0c99c	-0.019627385
49	0x3e608b75	0.21928199
50	0x3e829eb0	0.25511694
51	0xbec5f746	-0.38665217
52	0x3ee36754	0.4441477
53	0xbecbc6ec	-0.39800203
54	0x3eec6df4	0.46177638
55	0xbec16106	-0.37769336
56	0xbe21629f	-0.15760277
57	0x3e72301e	0.23651168
58	0xbe905373	-0.28188667
59	0xbe4b1d17	-0.19835316
60	0xbe9b6569	-0.30350807
61	0xbf071c78	-0.52777815
62	0x3ef07b6b	0.4696916
63	0xbea59866	-0.32342833
64	0x3e928f1b	0.28624806
65	0xbdb16436	-0.08661692
66	0xbe88944b	-0.2667564
67	0x3eda63cf	0.42654273
68	0xbe98b189	-0.2982295
69	0xbe2cbd56	-0.16869101
70	0x3eaf05a7	0.34184
71	0xbe03fad3	-0.1288865
72	0xbc48b97a	-0.012251252
73	0x3e8d2200	0.27565002
74	0x3d230e32	0.03980846
75	0xbebcfffc	-0.3691405
76	0x3ca595bc	0.020213
77	0x3ed6e8a8	0.41974378
78	0xbec4a2a6	-0.3840534
79	0xbd9a4c4f	-0.07534086
80	0xbdc31632	-0.09525718
81	0x3e39ed80	0.18157005
82	0xbe8feb89	-0.28109387
83	0xbeae5edf	-0.34056756
84	0xbebbeae4	-0.36702645
85	0xbeaec418	-0.34133983
86	0x3f01fc40	0.5077553
87	0x3d77425e	0.060366027
88	0x3eaa9420	0.33316135
89	0xbeaca7da	-0.3372181
90	0xbe4c7921	-0.19968082
91	0x3edb84aa	0.42874652
92	0x3d59ab1c	0.0531417
93	0xbe7c9a1f	-0.24668168
94	0x3ed22c81	0.4104958
95	0xbe5562c9	-0.20838465
96	0xbe3c2346	-0.18372831
97	0x3e9cf692	0.30656868
98	0xbd29c0fe	-0.041443817
99	0xbeeadc95	-0.45871416
100	0xbe93e626	-0.28886527
101	0x3eecd04b	0.46252665
102	0x3eb45a77	0.3522527
103	0x3ee285b6	0.44242638
104	0xbec3f375	-0.3827168
105	0xbe67f047	-0.22650252
106	0xbe5dc466	-0.21656951
107	0x3ef5fa74	0.48042643
108	0xbeb89771	-0.3605304
109	0xbe27d9a6	-0.1639162
110	0xbe598b76	-0.21244606
111	0xbe97c705	-0.29644027
112	0x3d5a5dcd	0.05331211
113	0x3ed53a3b	0.4164599
114	0x3ef40d2a	0.47666293
115	0x3e506618	0.20351446
116	0xbe190569	-0.1494347
117	0x3ea5a1f6	0.3235013
118	0x3edb7400	0.42861938
119	0x3ed29ccf	0.4113526
120	0x3e715941	0.23569204
121	0x3efb3199	0.49061278
122	0x3e9a91a2	0.30189234
123	0x3f0b01ee	0.5429982
124	0x3f07f124	0.53102326
125	0x3e65ac57	0.22429024
126	0xbf01c056	-0.50684106
127	0xbe3acc6a	-0.1824204
128	0x3e68bc0a	0.22727981
129	0x3ed02bc7	0.406584
130	0xbd34f378	-0.044177502
131	0x3ef26940	0.47345924
132	0x3e2b68ac	0.16739148
133	0xbe98e1ea	-0.2985986
134	0xbe5749af	-0.21024202
135	0xbe426ebd	-0.18987556
136	0x3e8e90d8	0.27844882
137	0x3ed7ecf4	0.42172968
138	0xbe1e6791	-0.15469195
139	0x3e9174f5	0.28409544
140	0x3e8f7272	0.28017002
141	0x3eca23b7	0.39480373
142	0x3eb48cd1	0.35263684
143	0x3e5aa16f	0.21350645
144	0x3e175e71	0.1478212
145	0x3eb2e41b	0.34939656
146	0xbe3abd53	-0.18236284
147	0x3ec092b8	0.37611938
148	0x3d866e5b	0.065640174
149	0xbe85edf7	-0.26158115
150	0x3e63d075	0.22247489
151	0xbee28632	-0.44243008
152	0xbdc17cf4	-0.09447661
153	0xbe4f09a0	-0.20218515
154	0x3e9cbd60	0.30613232
155	0xbe8afc78	-0.27145743
156	0x3ea5a049	0.3234885
157	0x3f0bdcd2	0.5463382
158	0x3e8d1c60	0.2756071
159	0xbc54143b	-0.012944276
160	0x3ee0e7b8	0.43926787
161	0x3f07c1c9	0.5303007
162	0x3e3a2a6f	0.1818025
163	0xbe4f252f	-0.20229028
164	0x3ea2e665	0.31816402
165	0x3ec386a3	0.38188657
166	0xbe9b76a3	-0.3036395
167	0xbefd9a42	-0.49531752
168	0xbe1faf68	-0.15594256
169	0x3e8f93a8	0.2804234
170	0xbe05c744	-0.13064295
171	0xbee4efea	-0.4471429
172	0xbe139411	-0.14411952
173	0xbeb7d855	-0.35907236
174	0x3ea40414	0.3203436
175	0xbeb10364	-0.345729
176	0xbe74052f	-0.23830102
177	0xbe6eeb92	-0.2333205
178	0x3e9757bd	0.29559126
179	0xbeca1a29	-0.39473084
180	0xbebca31c	-0.36843193
181	0x3ef35a50	0.4752984
182	0x3ee9ced3	0.45665607
183	0x3ec74fd8	0.38928103
184	0x3e62e458	0.22157419
185	0xbe86037a	-0.26174527
186	0xbe928adb	-0.28621563
187	0xbeb49049	-0.3526633
188	0xbe8fe51c	-0.28104484
189	0xbeebec9c	-0.46078956
190	0x3efa33a0	0.48867512
191	0x3e987fbd	0.29784957
192	0xbef3d717	-0.47625038
193	0x3eacb053	0.33728275
194	0x3ee522bd	0.44753066
195	0xbdb6e482	-0.08930303
196	0x3d95d229	0.073154755
197	0xbd79a18b	-0.060945075
198	0xbe9e135a	-0.3087414
199	0x3e9e69ae	0.30940002
200	0xbe06c209	-0.13159956
201	0x3ce45f86	0.02787758
202	0x3e028ee7	0.12749825
203	0x3e56cace	0.20975801
204	0xbd8d4fae	-0.06899963
205	0x3cf73fb8	0.03018175
206	0xbdb69c7b	-0.08916565
207	0x3e18a6ce	0.14907381
208	0x3f12c7bc	0.5733602
209	0xbe4bbe57	-0.19896828
210	0xbe21e577	-0.1581019
211	0xbe77f0ba	-0.24212924
212	0xbdbe1b27	-0.09282523
213	0x3d3ca19e	0.046052568
214	0x3ec199cc	0.3781265
215	0xbe32e3ba	-0.17469683
216	0xbc630025	-0.013855015
217	0xbea85e4a	-0.32884437
218	0x3eac3d4d	0.3364052
219	0x3dd7bda3	0.10534217
220	0xbe8e32b4	-0.27773058
221	0xbe8c7b9f	-0.27438065
222	0x3ef280ea	0.4736398
223	0x3ef890c9	0.48547962
224	0xbcc857bd	-0.0244559
225	0x3ebc289c	0.36749732
226	0xbef51e85	-0.47874847
227	0x3ed753fc	0.42056262
228	0x3e88a7b1	0.26690438
229	0xbe024205	-0.12720497
230	0x3f027bf3	0.5097038
231	0x3e9c8e2f	0.30577227
232	0xbeaa0c39	-0.3321245
233	0xbe15a786	-0.14614686
234	0x3ea1c1d4	0.31593192
235	0x3f006835	0.5015901
236	0x3eb6edcd	0.35728303
237	0xbee683aa	-0.45022327
238	0x3eed5eaf	0.463613
239	0x3e808044	0.2509786
240	0x3cf689cd	0.030095005
241	0xbeb0e00d	-0.34545937
242	0x3e9a1981	0.30097583
243	0x3e1369a4	0.14395767
244	0x3d72e75b	0.05930267
245	0xbc16054d	-0.009156537
246	0x3ed07a55	0.40718332
247	0xbed321ae	-0.41236633
248	0x3bdf20c7	0.0068093273
249	0xbec016f6	-0.37517518
250	0x3e61536a	0.22004476
251	0x3dddb521	0.10825563
252	0x3e4e4f55	0.2014745
253	0xbe3e2393	-0.18568258
254	0x3e9e6331	0.30935052
255	0xbed27ef6	-0.41112489

fc2.weight f4 [400, 400]
0	0xbd945946	-0.0724359
1	0xbd99d2da	-0.0751092
2	0xbdb8020a	-0.08984764
3	0x3c2031af	0.0097774705
4	0x3d1cc600	0.038274765
5	0xbddedf14	-0.108823925
6	0x3d1b94b0	0.037983596
7	0xbd40c1e3	-0.047059905
8	0xb8ce2338	-9.8294055e-05
9	0xbcfa5385	-0.030557403
10	0xbcc91c21	-0.024549546
11	0x3d5c8d72	0.05384583
12	0x3d1ed970	0.038781583
13	0x3c84ba84	0.016202219
14	0xbd47ed88	-0.04881051
15	0x3d93e24e	0.072208986
16	0x3d64cd66	0.055859946
17	0xbc38f7a7	-0.011289514
18	0x3d888672	0.066662684
19	0xbd881fdd	-0.066467024
20	0x3d985d55	0.07439677
21	0x3ab3ab05	0.0013707584
22	0xbc3a4bd2	-0.011370616
23	0xbd6e8e1e	-0.058241002
24	0x38e53043	0.000109285604
25	0xbc9db246	-0.019250046
26	0x3d2a4a87	0.04157498
27	0xbc52bdb9	-0.012862616
28	0xbcec29e3	-0.028828567
29	0xbd1f2e24	-0.038862363
30	0xbcaa942e	-0.02082261
31	0x3d344b23	0.04401697
32	0xbd0bbb85	-0.03411438
33	0xbda04569	-0.07825739
34	0x3d823f06	0.06359677
35	0x3d384a16	0.04499253
36	0xbc33a7c7	-0.010965294
37	0x3c72b10c	0.014812719
38	0x3cf578a9	0.029964762
39	0xbbe08e42	-0.006852896
40	0x3d40d7c0	0.047080755
41	0x3d2bfd58	0.041989654
42	0x3e849b41	0.258997
43	0xbd4df2b2	-0.05028028
44	0xbc09e70b	-0.008416901
45	0x3e0ecd34	0.13945466
46	0x3c263ce2	0.0101463515
47	0x3cb1a2ee	0.021684136
48	0xbcdbb86d	-0.02682134
49	0xbe08c962	-0.13358071
50	0xbbba0ab8	-0.0056775473
51	0x3c0cf6c8	0.008603759
52	0x3ab7b44b	0.0014015523
53	0x3c37255b	0.01117834
54	0x3d4eb408	0.05046466
55	0xbc48dd8c	-0.012259852
56	0x3d83ee0e	0.0644189
57	0xbd4a0e5e	-0.049330108
58	0xbe105cb8	-0.1409787
59	0xbdae82d5	-0.08521048
60	0xbd27dc5f	-0.040981647
61	0xbda1b9d1	-0.0789677
62	0x3d2e4a9d	0.042551626
63	0xbe10c9e9	-0.14139523
64	0x3ccab0e0	0.024742544
65	0xbd4baac6	-0.04972341
66	0x3c998915	0.018742124
67	0x3d3d0459	0.046146724
68	0xbd40f92a	-0.04711262
69	0xbd04d349	-0.03242806
70	0x3b61155d	0.003434501
71	0x3d15e1e7	0.03659239
72	0x3c301419	0.010746979
73	0xbd1b0d1f	-0.03785431
74	0x3bd87136	0.0066052927
75	0xbdca917f	-0.098910324
76	0xbc8d408a	-0.017242689
77	0x3d099d6c	0.033597395
78	0x3b9c34cc	0.004767036
79	0x3cc76401	0.024339678
80	0x3ceca01d	0.028884942
81	0x3d9a6d7c	0.07540414
82	0xbdb59290	-0.08865845
83	0x3c9ea2ee	0.0193648
84	0xbca0b5bc	-0.019617908
85	0x3d72c9d0	0.059274495
86	0x3d5b48f6	0.053536378
87	0x3d959697	0.07304113
88	0x3d3be8b9	0.04587624
89	0x3b04f9b8	0.0020290446
90	0x3d60be80	0.054869175
91	0x3d323070	0.043503225
92	0x391064f2	0.00013770515
93	0xbdb81790	-0.08988869
94	0xbb6ab2e5	-0.0035812196
95	0x3d2d7fed	0.042358328
96	0x3b8f0f37	0.0043658274
97	0x3d47e880	0.048805714
98	0xbd51b4bb	-0.05119775
99	0xbcc033d8	-0.023462221
100	0x3cd0f39e	0.02550679
101	0x3d132fda	0.035934307
102	0xbb83395c	-0.0040046405
103	0x3c90e94b	0.017689368
104	0xbe104a65	-0.1409088
105	0xbd340625	-0.043951172
106	0xbd42627a	-0.047457196
107	0xbca64559	-0.02029674
108	0xbde93aab	-0.11388143
109	0xbd099264	-0.033586875
110	0x3d0bd77a	0.03414104
111	0x3c8950ae	0.016762104
112	0x3bd07984	0.006362142
113	0x3c6a8388	0.014313586
114	0x3d128e40	0.03578019
115	0xb982188c	-0.0002481382
116	0xbdd5396c	-0.10411343
117	0x3db8b0af	0.09018075
118	0x3d3b7616	0.045766912
119	0x3d9cbb77	0.076529436
120	0x3d9a2b26	0.07527761
121	0xbcd2757a	-0.025690783
122	0x3cdfefe1	0.027336063
123	0x3cd9d904	0.026592739
124	0xbc925a08	-0.017865196
125	0x3c4802a4	0.012207661
126	0x3d8df34d	0.069311716
127	0x3b846705	0.004040601
128	0x3ca48046	0.020080697
129	0x3cf1f33d	0.02953493
130	0xbc200af5	-0.009768237
131	0x3c8ab22d	0.016930664
132	0x3d82ee5f	0.06393122
133	0xbd12b99d	-0.035821546
134	0x3d90e026	0.07074003
135	0xbde2823f	-0.11059999
136	0x3d839abe	0.06425999
137	0x3d237b12	0.03991229
138	0x3da6738e	0.08127509
139	0x3cf021a6	0.02931292
140	0x3d2abd01	0.041684154
141	0x3dae8056	0.08520572
142	0xbd0e0824	-0.034675732
143	0x3bb5afd7	0.0055446434
144	0x3d39d51d	0.045369256
145	0x3d454c45	0.04816844
146	0x3bf889f3	0.007584804
147	0x3d032c0f	0.03202444
148	0x3c7b97a0	0.015355974
149	0xbec33371	-0.38125184
150	0xbb0f2478	-0.0021841805
151	0xbdb5c565	-0.08875541
152	0x3e829785	0.25506225
153	0xbd72dddd	-0.059293617
154	0x3d742f7b	0.059615593
155	0x3de33c77	0.11095517
156	0x3d5a4c89	0.053295646
157	0x3d04f760	0.032462478
158	0xbbd597ab	-0.0065183244
159	0x3d07ace0	0.03312385
160	0xbc865159	-0.016396211
161	0x3d3bbdac	0.045835182
162	0x3d621168	0.05519238
163	0xbd489098	-0.04896602
164	0x3d4db573	0.05022187
165	0x3d987ac8	0.07445294
166	0xbdaeff02	-0.08544733
167	0x3caeac0b	0.02132227
168	0xbc876f5f	-0.016532598
169	0x3d36e34e	0.04465037
170	0xbd2afca6	-0.04174485
171	0xbd6273bd	-0.055286158
172	0x3d9177a3	0.07102897
173	0x3d395d40	0.045254946
174	0x3d25b532	0.040456004
175	0x3ccfdf02	0.025374893
176	0xbd235724	-0.039878026
177	0xbd8483e4	-0.06470469
178	0x3d3d4dc7	0.046216752
179	0xbe67f8e5	-0.2265354
180	0xbd12f1f1	-0.035875265
181	0xbc114bc5	-0.0088681625
182	0x3d93f467	0.072243504
183	0x3d1c1ad5	0.038111527
184	0xbb459abc	-0.0030152043
185	0x3d01696b	0.031594675
186	0x3d572dc5	0.052533884
187	0x3cbc075a	0.022952724
188	0xbd032e72	-0.032026716
189	0xbd207195	-0.03917082
190	0x3caf4018	0.021392867
191	0x3d5ea30a	0.054354705
192	0xbe0aaa39	-0.13541497
193	0x3d2b2e5a	0.04179225
194	0x3c2f78f7	0.010709993
195	0x3b00bc3d	0.0019643449
196	0x3d8e291a	0.06941433
197	0x3c1e89ae	0.00967638
198	0x3bf7ebdb	0.007565958
199	0x3d482ea6	0.048872612
200	0xbd061ad7	-0.03274044
201	0x3da5a225	0.08087567
202	0x3d2a0dac	0.041516945
203	0x3d71cd5b	0.059033733
204	0x3d82c506	0.063852355
205	0xb8c59f67	-9.423383e-05
206	0x3d8b0156	0.06787364
207	0x3b6c7216	0.0036078743
208	0x3c66eb20	0.014094144
209	0x3cb81637	0.02247153
210	0xbde71ed8	-0.1128518
211	0xbdf8cf97	-0.121489696
212	0xbd6a97f9	-0.05727384
213	0x3cdbd75e	0.026836094
214	0x3d131ae8	0.03591433
215	0xb9b059d6	-0.0003363627
216	0xbdac696b	-0.084185444
217	0xbdb6b579	-0.08921332
218	0x3c3574a6	0.011075174
219	0x3c5e7b27	0.0135791665
220	0xbd4e8d9c	-0.050428018
221	0x3d34bc96	0.044125162
222	0x3d6b06d7	0.05737957
223	0xbc016916	-0.00789859
224	0x3d7925fc	0.06082724
225	0x3c968aea	0.018376786
226	0x3e4f81da	0.20264378
227	0xbb97fd38	-0.0046383403
228	0x3da7717b	0.081759416
229	0xbdc74425	-0.097297944
230	0x3da1c361	0.07898594
231	0xbcdfe275	-0.027329663
232	0x3d2a154a	0.04152421
233	0xbcf77b92	-0.03021029
234	0x3d650c5f	0.05592
235	0xbd177137	-0.036973204
236	0x3d83264d	0.0640379
237	0xbc99f500	-0.018793583
238	0x3d6baf07	0.057539966
239	0xbc006b34	-0.007838059
240	0x3e3bfeb3	0.18358879
241	0x3d7a8f95	0.061172087
242	0x3ce00ead	0.027350748
243	0x3cbf4f44	0.023353226
244	0x3cf11872	0.029430602
245	0x3d7b3e84	0.061338916
246	0x3cd6c9d5	0.026219288
247	0xbddaf411	-0.10691083
248	0xbd2bb309	-0.041918788
249	0x3ce70a36	0.028203111
250	0x3bcd06a8	0.006256897
251	0x3e246adc	0.16056389
252	0x3b64ff6b	0.003494228
253	0x3dacb0da	0.08432169
254	0x3d810710	0.06300175
255	0xbd62067c	-0.055181965

fc2.bias f4 [400]
0	0x3c1880d8	0.0093080625
1	0x3c3e6d08	0.011622675
2	0xbc4a3d3d	-0.012343702
3	0x3bc5cf63	0.0060366853
4	0x3d113b39	0.03545687
5	0xbd7d8354	-0.061892822
6	0x3c01027d	0.007874128
7	0xbd3781f6	-0.044801675
8	0x3cbe8cb7	0.023260457
9	0x3d3481b2	0.044069
10	0xbd1b2291	-0.037874762
11	0x3cd80b99	0.026372718
12	0x3cc93949	0.024563449
13	0x3b894837	0.004189517
14	0x3d8b86b0	0.06812799
15	0x3c31f262	0.010861011
16	0x3c3f1480	0.011662602
17	0x3d5a9144	0.053361192
18	0x3d1b2e26	0.037885807
19	0x3d1e8e06	0.038709663
20	0x3cdcd5b5	0.026957372
21	0x3ccaf98d	0.024777198
22	0xbd219742	-0.03945089
23	0x3d6a383c	0.057182536
24	0xbd3b075b	-0.04566131
25	0xbd0bb92d	-0.034112144
26	0xbd45f257	-0.048326816
27	0x3ba768f0	0.005108945
28	0xbb8cd274	-0.004297549
29	0x3d388232	0.04504604
30	0xbc699b80	-0.0142582655
31	0x3d483284	0.0488763
32	0x3d4f8670	0.05066532
33	0x3d7b84f9	0.06140611
34	0xbd5d6ab7	-0.05405685
35	0xbd4ca477	-0.049961533
36	0x3b125832	0.00223304
37	0x3d8edd82	0.06975843
38	0x3d955918	0.07292384
39	0xbd23a91d	-0.0399562
40	0x3d3e9fc6	0.04653909
41	0x3d8e3cb9	0.06945176
42	0x3d4bc19f	0.0497452
43	0xbd3bc5f5	-0.045843083
44	0xbd5f41c2	-0.05450607
45	0xbc573354	-0.013134796
46	0x3ca5c944	0.020237572
47	0x3b6b6177	0.0035916248
48	0x3d0981cc	0.03357105
49	0x3cdc3df2	0.026885007
50	0x3d10c469	0.03534356
51	0x3c7fb731	0.015607641
52	0x3db5e9d5	0.088824905
53	0x3b68f454	0.0035546022
54	0x3c30f737	0.010801128
55	0x3d54d1fd	0.051958073
56	0x3d2f6a22	0.042825826
57	0x3d08b080	0.03337145
58	0xbc855fa1	-0.016280951
59	0x3d080915	0.033211786
60	0x3bf9c39b	0.007622195
61	0xbd196a1f	-0.03745472
62	0x3dc6d079	0.09707732
63	0x3bb11b37	0.0054048556
64	0x3bcf3e34	0.006324554
65	0xbc2de8db	-0.010614599
66	0x3c919127	0.01776941
67	0x3d0ccc9b	0.034374814
68	0xbca3dcac	-0.020002685
69	0x3d8bee06	0.06832509
70	0x3c6fd302	0.0146377105
71	0xbd1a4835	-0.03766652
72	0x3d16062f	0.03662699
73	0xbcd11fa5	-0.025527785
74	0xbd0c2120	-0.034211278
75	0x3d2e0139	0.042481635
76	0x3d95b95e	0.073107466
77	0xbda5425c	-0.08069298
78	0x3c98c7ae	0.018649902
79	0x3c614143	0.01374847
80	0xbccc52ba	-0.02494179
81	0x3d6a13f7	0.057147946
82	0x3d9f04df	0.07764601
83	0xb9b7192d	-0.00034923237
84	0x3bea375f	0.007147714
85	0x3ca507ee	0.020145383
86	0x3c3108c2	0.010805311
87	0x3daf3b43	0.08556225
88	0xbd46819c	-0.04846345
89	0x39d720c6	0.00041032414
90	0xbce663d3	-0.028123772
91	0x3d1ce4c7	0.038304117
92	0x3d990a66	0.074726865
93	0xbd2b2f00	-0.04179287
94	0xbcf28dfa	-0.029608715
95	0xba664732	-0.00087844126
96	0xbd2bc135	-0.041932303
97	0xbbb89027	-0.0056324187
98	0x3dac120c	0.0840188
99	0x3d54d9a9	0.05196539
100	0xbca1921d	-0.019722993
101	0x3d04c3ec	0.03241341
102	0x3d3c0e7a	0.045912243
103	0x3d3f14a1	0.046650533
104	0xbc9f1061	-0.01941699
105	0x3d02c814	0.03192909
106	0xb7d412c9	-2.5281117e-05
107	0x3cd4d7a0	0.025981724
108	0xbcdb79a0	-0.026791394
109	0xbd58a5f7	-0.05289265
110	0x3ce6af43	0.028159743
111	0x3c4c4dce	0.012469722
112	0x3d5590ae	0.05213993
113	0x3bb68542	0.005570085
114	0xbbbd2b17	-0.005772959
115	0x3d22a202	0.039705284
116	0x3caf9a3b	0.021435848
117	0xbd0a0f94	-0.033706263
118	0x3d988a92	0.07448305
119	0x3c9efdd1	0.019408138
120	0x3d0b7278	0.034044713
121	0xbc6d4368	-0.014481403
122	0xbd4677ad	-0.048453975
123	0x3c857561	0.016291322
124	0x3d964c19	0.07338733
125	0xbcf242f3	-0.02957294
126	0xbd428989	-0.047494445
127	0x3ce8223f	0.028336642
128	0xbadc26b7	-0.0016796206
129	0xbc25c9c0	-0.010118902
130	0x3be6c331	0.0070423116
131	0x3c5c412b	0.013443272
132	0xbcd4ca54	-0.025975384
133	0x3d4ea700	0.050452232
134	0xbc4e5284	-0.012592915
135	0xbcccc8af	-0.024998037
136	0x3d97cb0c	0.07411775
137	0x3a92e540	0.0011207238
138	0xbd29808e	-0.041382365
139	0x3bcb2c33	0.0062003373
140	0x3cc3c219	0.023896264
141	0x3bb8b276	0.0056365086
142	0x3d905341	0.070471294
143	0xbd310da7	-0.04322591
144	0x3c9b4ade	0.018956598
145	0x3d5a0b17	0.053233232
146	0x3d847bbf	0.06468915
147	0xbcb137f9	-0.021633135
148	0x3cb66373	0.022264218
149	0xbcef8d14	-0.029242076
150	0x3ca15212	0.019692454
151	0xbc962175	-0.0183265
152	0x3ce91a7b	0.02845501
153	0x3cf1aa2e	0.029500093
154	0xbcb763b7	-0.022386415
155	0x3d23e5b9	0.040014002
156	0x3bf2f858	0.007414859
157	0xbbd5e510	-0.0065275505
158	0xbd285262	-0.04109419
159	0x3d4b3bd1	0.049617592
160	0xbb594f05	-0.0033158672
161	0xbb0ba278	-0.0021306556
162	0x3bc4e216	0.006008397
163	0xbd7c7c9e	-0.06164228
164	0x3d5bbfbc	0.05364965
165	0x3d8d369b	0.06895181
166	0x3d6eb7e5	0.058280844
167	0x3c086bb9	0.008326464
168	0x3d5af56f	0.05345672
169	0x3d19a123	0.037507188
170	0xbd1fab16	-0.03898152
171	0xbd07fc64	-0.033199683
172	0x3dad73b2	0.08469333
173	0xbb68d32c	-0.003552626
174	0xbd0f70ff	-0.03501987
175	0x3cf6b172	0.03011391
176	0xbac46f99	-0.0014986872
177	0xba450ca4	-0.0007516837
178	0x3d8381a1	0.06421209
179	0xbc41be31	-0.01182513
180	0x3db75508	0.08951765
181	0x3d804607	0.06263357
182	0x3ccf546a	0.025308806
183	0x3d6ca357	0.05777296
184	0xbd722f09	-0.059126887
185	0xbcc351e2	-0.023842756
186	0x3caf5fae	0.021407928
187	0xbccd1040	-0.025032163
188	0x3d417e1b	0.047239404
189	0x3d8dde91	0.06927217
190	0x3b019f03	0.0019778616
191	0x3c50b16c	0.012737613
192	0x3d7d37f3	0.061820935
193	0x3c54d5db	0.01299044
194	0x3d8c93b7	0.06864112
195	0x3d1b67a8	0.03794065
196	0xba5d36d8	-0.00084386533
197	0x3d5e56a9	0.054281864
198	0x3d6133e4	0.054981127
199	0x3cb53d5c	0.022123985
200	0x3b76c7ed	0.0037655786
201	0x3d8506ab	0.064954124
202	0x3c60fba7	0.013731874
203	0xbbabad72	-0.005239182
204	0xbca1d28d	-0.019753719
205	0x3d19267a	0.03739021
206	0x3c670f85	0.014102821
207	0x3da67ebd	0.08129642
208	0x3c0ad9bf	0.008474766
209	0x3d4bc6e9	0.049750242
210	0x3b73b861	0.0037188756
211	0x3c863528	0.016382769
212	0x3c18cb9b	0.009325887
213	0xbd03583e	-0.032066576
214	0x3d213cc0	0.039364576
215	0x3c1fa155	0.009743054
216	0x3d7f6895	0.062355597
217	0xbd673172	-0.05644364
218	0xbc676d40	-0.014125168
219	0xbc54e3a8	-0.012993731
220	0x3d41bb8b	0.047297996
221	0xbc03c234	-0.008041907
222	0x3d96dc58	0.07366246
223	0xbbf3fae8	-0.007445682
224	0x3c8e7005	0.0173874
225	0x3d080b8d	0.03321414
226	0x3ca29842	0.019847993
227	0x3d9c236d	0.076239444
228	0x3cbfa34d	0.023393298
229	0x3db1956f	0.0867108
230	0xbd4d3cea	-0.05010692
231	0x3db1c79c	0.086806506
232	0xbd1e7e31	-0.038694564
233	0xbb35c37a	-0.0027734921
234	0x3d8a122a	0.06741746
235	0xbc40e7d2	-0.01177402
236	0xbaf7a300	-0.0018893182
237	0xbd4a0aa0	-0.04932654
238	0x3c3b71e8	0.011440732
239	0x3cc82783	0.024432903
240	0xbd107cf2	-0.035275407
241	0x3d51a5ee	0.051183634
242	0xbd0f8ba7	-0.035045292
243	0x3cc311db	0.023812225
244	0x3c91ed6a	0.017813403
245	0x3950e38a	0.0001992119
246	0xbbe17cdb	-0.006881339
247	0xbd04f7da	-0.032462932
248	0xbd024118	-0.03180036
249	0x3c7dec6e	0.015498264
250	0x3d194e7d	0.037428368
251	0xbca8cbc8	-0.020604983
252	0xbba622a3	-0.005070047
253	0xbc73a33f	-0.014870464
254	0x3d1fe2e5	0.039034743
255	0xbc624cfe	-0.013812302

fc3.weight f4 [2, 400]
0	0x3d7f8997	0.062387075
1	0xbebf3c75	-0.37350813
2	0xbc71ea63	-0.014765355
3	0x3db96b8d	0.09053717
4	0x3cbd8e62	0.023139182
5	0x3c897b99	0.016782569
6	0xbd15c483	-0.03656436
7	0x3d0ea40c	0.034824416
8	0x3dff9b04	0.12480739
9	0x3e4a0871	0.19729783
10	0xbed2da91	-0.41182378
11	0xbd013691	-0.03154618
12	0xbeb0b128	-0.3451016
13	0xbd40b9dc	-0.04705225
14	0x3e1b8d0c	0.15190524
15	0x3d35e4fa	0.044407822
16	0x3d05b86d	0.032646585
17	0x3d197a96	0.037470423
18	0xbcb2c43b	-0.021822086
19	0x3d4fd8c7	0.050743844
20	0xbba588ad	-0.0050516934
21	0xbece2a44	-0.4026662
22	0xbe1e8ee0	-0.1548419
23	0x3e228530	0.1587112
24	0xbe2465a7	-0.16054402
25	0x3ceab25e	0.028649505
26	0xbe8ed9fe	-0.2790069
27	0x3d356a3d	0.04429077
28	0xbe67c13c	-0.22632307
29	0x3ea4cf86	0.32189578
30	0xbca10bad	-0.019658888
31	0x3d333995	0.043756086
32	0xbdae01f4	-0.08496466
33	0x3da62a75	0.08113567
34	0xbda676c7	-0.08128124
35	0xbeb2b505	-0.34903732
36	0xbcc7d10f	-0.02439168
37	0x3c9ce6f1	0.01915309
38	0x3dbd7644	0.09251073
39	0xbdb275d3	-0.087138794
40	0x3d880d42	0.06643154
41	0x3d11d3cd	0.03560238
42	0xbd40ec41	-0.04710031
43	0xbe44fe9a	-0.19237748
44	0x3d13f79a	0.036124803
45	0xbcc7087f	-0.024296043
46	0xbcd7676a	-0.026294429
47	0xbe0a7f26	-0.13525066
48	0x3bc205fe	0.0059211245
49	0xbdc9f8cf	-0.098619096
50	0x3dac4285	0.08411125
51	0x3d2a1e00	0.041532516
52	0x3da7eeeb	0.08199867
53	0xbe1ee549	-0.15517153
54	0x3d076a90	0.03306061
55	0xbe0c1b38	-0.13682258
56	0x3e28b969	0.16476978
57	0x3ddafe2e	0.10693012
58	0xbe9a2090	-0.30102968
59	0xbe566e4c	-0.20940512
60	0xbebcbdaa	-0.36863452
61	0x3c5c21a6	0.013435757
62	0x3eb4eba7	0.35336038
63	0xbec08752	-0.3760324
64	0xbec747d2	-0.38921982
65	0x3e0402c5	0.12891681
66	0x3dcf23c6	0.10114245
67	0x3dc9fc82	0.09862615
68	0xbd08707f	-0.03331041
69	0xbe7c9e19	-0.24669684
70	0x3cd9b778	0.026576743
71	0xbe7871c8	-0.24262154
72	0x3da9af47	0.082853846
73	0xbd0f7803	-0.03502656
74	0xbcf42aa7	-0.029805494
75	0x3e044e93	0.12920599
76	0x3d8eb918	0.069688976
77	0xbe8db415	-0.27676454
78	0x3e23aaa6	0.15983066
79	0x3dba74b1	0.09104288
80	0x3c52132c	0.012821954
81	0x3e39f8db	0.18161337
82	0x3d54b5b6	0.051931106
83	0x3c1bbeb5	0.009505917
84	0x3e4181d5	0.18897183
85	0xbd3c0bbc	-0.04590963
86	0x3e1179d0	0.14206624
87	0xbe65a7f0	-0.22427344
88	0x3b300c25	0.0026862707
89	0xbebd649f	-0.3699083
90	0xbd4814f4	-0.048848107
91	0x3e24406f	0.16040204
92	0x3dc1194f	0.09428655
93	0x3c0dc2f4	0.0086524375
94	0x3c8126a5	0.015765497
95	0x3df533f7	0.11972802
96	0xbbe6bd80	-0.007041633
97	0xbe93bf47	-0.2885687
98	0x3e3a1e16	0.1817554
99	0x3e4cc7e0	0.19998121
100	0xbb19727b	-0.0023414183
101	0x3d28b1ac	0.041185066
102	0x3d835f3d	0.0641465
103	0xbdddf60a	-0.10837944
104	0x3ccad472	0.024759505
105	0xbcd561a8	-0.026047543
106	0xbd1815c9	-0.03713015
107	0xbea7d020	-0.32775974
108	0xbb41c530	-0.0029566996
109	0xbd1116af	-0.035422023
110	0x3d909b1c	0.07060835
111	0x3dec0daf	0.115260474
112	0x3d45319f	0.048143025
113	0xbec3c764	-0.3823806
114	0xbe5bb09b	-0.21454088
115	0x3e2c954b	0.16853826
116	0x3da25604	0.079265624
117	0xbd2639ae	-0.04058235
118	0x3d825784	0.063643485
119	0xbeb2dec4	-0.34935582
120	0x3e279632	0.16365889
121	0xbd1f3efc	-0.038878426
122	0x3d23398d	0.039849807
123	0x3e28f342	0.16499045
124	0x3d4ddc8d	0.05025916
125	0xbe006341	-0.12537862
126	0xbea19bb0	-0.31564093
127	0xbdd67802	-0.104721084
128	0x3dda90ba	0.10672136
129	0xbcdf562a	-0.027262766
130	0xbea61686	-0.3243906
131	0x3d289be8	0.04116431
132	0xbd21db22	-0.039515622
133	0x3e385b3a	0.1800355
134	0x3d913b90	0.07091439
135	0x3d08dbd4	0.03341277
136	0x3dfb1203	0.12259295
137	0xbe276096	-0.16345438
138	0xbe32b0db	-0.17450278
139	0x3e37d7e2	0.17953447
140	0x3d93b8f7	0.072130136
141	0xbd0bcca8	-0.034130722
142	0x3d5be1dd	0.053682197
143	0x3d30da91	0.04317719
144	0x3e3ed204	0.18634802
145	0x3de32305	0.11090664
146	0x3e9775a3	0.29581937
147	0x3ced5c7e	0.028974768
148	0xbd1a457a	-0.037663914
149	0xbe05d422	-0.13069203
150	0x3d623391	0.05522496
151	0xbe108da6	-0.14116535
152	0xbe1f5a7f	-0.15561865
153	0x3e288b37	0.16459356
154	0x3e8b84f1	0.27249864
155	0x3ded42d4	0.11585012
156	0x3dcf6ddc	0.10128376
157	0x3afa7660	0.0019108765
158	0x3c3d33d4	0.011548001
159	0x3e34f326	0.17670879
160	0xbe132cc2	-0.14372543
161	0xbd3ad903	-0.045617115
162	0x3e27d2a1	0.16388942
163	0xbebba210	-0.3664708
164	0x3dd8aa59	0.10579366
165	0x3e25f959	0.162084
166	0x3d9ca905	0.076494254
167	0xbe0e9ed8	-0.13927782
168	0x3d777f4f	0.060424145
169	0xbe215393	-0.15754537
170	0xbe95fd26	-0.292947
171	0xbe641a11	-0.22275569
172	0x3e4ff56a	0.20308462
173	0x3de05c3d	0.10955093
174	0xbe2f1eb3	-0.17101555
175	0x3cf75618	0.03019242
176	0xbc7acaae	-0.015307112
177	0xbecac097	-0.3960006
178	0x3d2e023a	0.042482592
179	0x3e48cb25	0.19608743
180	0x3dd71caa	0.10503514
181	0xbd0337c8	-0.03203562
182	0x3d7a9b58	0.061183304
183	0x3e5791f4	0.2105177
184	0xbedc5018	-0.43029857
185	0x3c8e3dc2	0.017363433
186	0x3da74682	0.08167745
187	0xbe393264	-0.18085629
188	0x3d993173	0.07480135
189	0x3e090072	0.13379076
190	0xbecc40de	-0.3989324
191	0xbd06d088	-0.032913715
192	0x3d0e1cd2	0.034695454
193	0xbec02c88	-0.37533975
194	0x3e0fa8cb	0.14029233
195	0x3d21d0c9	0.039505754
196	0x3e907f90	0.28222322
197	0x3dabff64	0.08398321
198	0x3e2f2559	0.17104091
199	0xbe616b0f	-0.22013496
200	0xbeae7d12	-0.34079796
201	0x3e310202	0.17285922
202	0xbcec5252	-0.028847847
203	0x3e41a1e4	0.18909413
204	0x3d16ed1b	0.036847215
205	0x3e2ab41b	0.16670267
206	0x3db5f83f	0.0888524
207	0x3e414ae8	0.1887623
208	0xbbf2e2c0	-0.0074122846
209	0x3d86c344	0.06580213
210	0xbdc55757	-0.096357994
211	0xb9e48f15	-0.00043594153
212	0x3e6e3c1f	0.23265122
213	0xbafd6500	-0.0019332469
214	0xbc4ae6f6	-0.012384167
215	0x3d35668f	0.04428726
216	0x3e475ee2	0.19469789
217	0xbe94e074	-0.29077494
218	0xbe4f7f4a	-0.202634
219	0xbe493d04	-0.19652182
220	0xbe9a7c7d	-0.30173102
221	0xbd26abae	-0.04069107
222	0x3d8afd47	0.0678659
223	0x3ddf2e59	0.10897512
224	0x3d7c7e4f	0.061643895
225	0x3da17a18	0.07884616
226	0xbc268d38	-0.010165505
227	0x3da31172	0.07962312
228	0xbdaa660e	-0.08320247
229	0x3e0669e2	0.13126329
230	0x3d2c1602	0.042013176
231	0x3d8c9f19	0.06866283
232	0x3beb9cc7	0.00719032
233	0xbebecdea	-0.37266475
234	0x3e03b65a	0.1286253
235	0xbe94bfe8	-0.29052663
236	0x3cc9a6aa	0.024615604
237	0x3ac01cdb	0.0014657037
238	0xbb987e98	-0.004653763
239	0x3b9be48d	0.00475747
240	0xbeaf1950	-0.34199
241	0x3d835f18	0.06414622
242	0x3ee2057d	0.44144812
243	0x3e1a66f9	0.15078343
244	0x3e5eacc1	0.21745588
245	0x3d596787	0.053077247
246	0x3cc106c2	0.023562793
247	0xbce04773	-0.02737782
248	0xbca5b237	-0.020226581
249	0xbc4b4b4c	-0.012408089
250	0xbeaffab0	-0.34370947
251	0xbe130402	-0.14356998
252	0x3d2e4ddf	0.042554732
253	0x3d27c44f	0.0409587
254	0xbe36802c	-0.17822331
255	0xbec60983	-0.38679132

fc3.bias f4 [2]
0	0x3c876038	0.016525373
1	0x3b2ef8a0	0.0026698485
