reinforcement_learning/models_cartpole/dqn_agent.pt (torch, 654615 bytes, 6 tensors)

fc1.weight f4 [400, 4]
-0.493857 0.5465384 0.18082207 0.33297122 0.09095301 0.036046736 0.43812785 -0.21422015
-0.53184956 -0.28419068 0.6750452 0.4952106 0.38701037 0.27009165 -0.72628856 0.07493794
0.13109721 0.2328811 0.3580934 0.18113285 -0.09146829 -0.41254538 0.7270415 -0.017560113
0.052463382 0.44715217 0.39743006 0.40019354 0.401404 0.08566042 0.217239 0.29947996
0.07743536 -0.38120925 0.2366849 0.48333225 -0.34207466 0.10532354 0.56848854 0.33465746
0.26515093 0.15184818 0.67985404 0.23112412 0.59597915 -0.18012585 -0.58378327 0.031085212
0.16299324 0.24744155 0.6074696 -0.43351674 0.1761348 -0.092143565 0.28060022 0.35057282
-0.2655894 0.13702129 0.5001999 -0.40164804 0.12082282 -0.014210416 0.15573055 0.46007186
-0.48121035 -0.04441638 -0.11418801 0.15041319 0.445004 -0.37934023 0.23911075 -0.23919451
0.6185168 0.13304715 -0.6332271 -0.12387514 0.45259416 -0.5001056 -0.6554822 0.006065936
0.34340972 -0.24388185 -0.5970839 -0.059349947 -0.48528218 0.5125866 -0.02932176 -0.1306643
0.3237697 -0.4413548 0.1717026 0.19144405 -0.21286374 -0.33533692 0.58700234 0.24699152
0.3643528 0.35999084 -0.11314068 0.020447752 0.28312552 0.056564596 -0.61641866 -0.39415875
-0.4127634 -0.062205624 -0.35068095 -0.17748722 -0.57652366 -0.28544647 0.32543328 0.19441009
-0.08751083 -0.42760664 -0.54324806 0.097994134 0.39962223 -0.29175445 -0.618177 -0.47456723
0.33248028 0.2169005 0.47818547 0.09104943 -0.23669977 0.5552865 0.13116099 0.10155514
0.45034447 -0.35629812 -0.4332268 0.2865885 0.63332844 0.31937683 -0.6539923 -0.33707803
0.092922755 -0.003906733 -0.482696 0.44304982 0.25201127 0.046831816 -0.46709532 0.26171166
0.36980367 -0.009870143 -0.24100411 0.38138336 0.29029557 0.36502284 0.64378667 0.035490427
-0.32464972 0.055739246 0.27674818 -0.25749937 -0.37763363 -0.10449284 0.32467324 0.47365975
-0.22924316 -0.13507693 -0.11053113 0.45295665 -0.069684446 -0.2038731 0.11205368 0.52846766
-0.45105445 -0.37799895 -0.2048425 -0.106690116 -0.298614 0.1852169 -0.28778744 -0.44728833
-0.17876 -0.35092768 -0.79143286 -0.079000734 0.044146493 0.32674754 -0.27827287 0.40323585
-0.2830738 0.28477 -0.36011836 -0.517471 0.32349822 0.08977146 -0.07908411 -0.15581642
-0.47735998 0.3866415 -0.48239487 -0.45389166 -0.28661972 0.38491935 0.44597694 -0.38290614
-0.15334034 -0.379506 -0.49814424 -0.06599185 -0.50320005 -0.4149735 0.31626105 -0.1917579
0.1264081 -0.3983512 0.20847395 -0.027087854 0.20940757 0.025060983 -0.34842792 -0.49659935
-0.26368615 -0.25086817 -0.1634578 -0.33990687 -0.37799403 0.21463946 0.44591936 0.3556139
0.08805559 0.14187416 -0.038933713 0.17528027 0.5503816 -0.1991486 -0.6121506 -0.31897566
-0.56986296 0.15684344 -0.1583579 0.27195576 0.13105808 -0.37465772 0.42860922 0.26833573
0.2534942 -0.30695593 0.11051077 -0.19012207 -0.20224427 0.11240766 -0.14927463 0.3832312
-0.3212745 0.2910225 -0.059564523 -0.33670992 -0.18193021 0.2522479 0.75525826 0.4673432
00000000: d3da fcbe f1e9 0b3f 6c29 393e 347b aa3e
00000010: 9245 ba3d bea5 133d 4b52 e03e 875c 5bbe
00000020: 4b27 08bf 7181 91be c3cf 2c3f 3e8c fd3e
00000030: 3926 c63e 7449 8a3e 0cee 39bf 1079 993d
00000040: 593e 063e 6278 6e3e 0558 b73e e47a 393e
00000050: ba53 bbbd 2639 d3be 641f 3a3f 3ada 8fbc
00000060: d8e3 563d 21f1 e43e f47b cb3e 2be6 cc3e
00000070: d384 cd3e bb6e af3d e773 5e3e 7055 993e
00000080: 6e96 9e3d dc2d c3be 875d 723e 5377 f73e
00000090: 6924 afbe deb3 d73d 7788 113f 3958 ab3e
000000a0: ddc1 873e 177e 1b3e ea0a 2e3f cdab 6c3e
000000b0: 1792 183f e972 38be d272 15bf 6aa6 fe3c
000000c0: b3e7 263e 5161 7d3e 2183 1b3f e8f5 ddbe
000000d0: ae5c 343e c4b5 bcbd d5aa 8f3e 487e b33e
000000e0: 55fb 87be 4f4f 0c3e 1a0d 003f d0a4 cdbe
000000f0: f471 f73d ced2 68bc d477 1f3e 8a8e eb3e
00000100: 3461 f6be f3ed 35bd 67db e9bd ea05 1a3e
00000110: 90d7 e33e e238 c2be 73d9 743e 68ef 74be
00000120: 1e57 1e3f 833d 083e 2c1b 22bf 40b2 fdbd
00000130: 6cba e73e ec06 00bf aecd 27bf c2c4 c63b
00000140: 66d3 af3e 2abc 79be 7eda 18bf ee18 73bd
00000150: e876 f8be e038 033f 3034 f0bc ddcc 05be
00000160: 24c5 a53e 42f9 e1be ced2 2f3e e909 443e
00000170: f4f8 59be 48b1 abbe c945 163f 58eb 7c3e
00000180: 738c ba3e b850 b83e 4db6 e7bd 0b82 a73c
00000190: d4f5 903e 47b0 673d 9dcd 1dbf 2dcf c9be
000001a0: b955 d3be 53cb 7ebd 748c b3be 36bf 35be
000001b0: 0e97 13bf 0a26 92be 319f a63e 7013 473e
000001c0: e138 b3bd 42ef dabe 4e12 0bbf 26b1 c83d
000001d0: 499b cc3e d760 95be d940 1ebf 7afa f2be
000001e0: db3a aa3e 2a1b 5e3e bad4 f43e 2078 ba3d
000001f0: 6d61 72be 4227 0e3f 114f 063e 24fc cf3d
00000200: 8d93 e63e b56c b6be e7cf ddbe babb 923e
00000210: d021 223f 5c85 a33e 0a6c 27bf 7e95 acbe
00000220: 494e be3d 0d04 80bb ee23 f7be 6dd7 e23e
00000230: 9f07 813e b8d2 3f3d 1e27 efbe 12ff 853e
00000240: e856 bd3e 61b6 21bc c8c9 76be ae44 c33e
00000250: 9fa1 943e 46e4 ba3e 34cf 243f 695e 113d
00000260: 7d38 a6be d64e 643d f0b1 8d3e f5d6 83be
00000270: 3259 c1be 5800 d6bd 923b a63e 8883 f23e
00000280: b8be 6abe 9b51 0abe 255e e2bd efe9 e73e
00000290: b8b6 8ebd 1cc4 50be 667c e53d a849 073f
000002a0: 9cf0 e6be 1489 c1be 3bc2 51be 5980 dabd
000002b0: efe3 98be 80a9 3d3e e058 93be fa02 e5be
000002c0: dd0c 37be cbac b3be 589b 4abf 23cb a1bd
000002d0: f4d2 343d 744b a73e c879 8ebe ee74 ce3e
000002e0: 0def 90be 60cd 913e 6f61 b8be fb78 04bf
000002f0: 8fa1 a53e 19da b73d daf6 a1bd 578e 1fbe
00000300: 8768 f4be e0f5 c53e 76fc f6be 7d64 e8be
00000310: d2bf 92be 2614 c53e 1757 e43e 460c c4be
00000320: 4005 1dbe 9c4e c2be c30c ffbe bc26 87bd
00000330: b8d1 00bf 6877 d4be f8ec a13e 2f5c 44be
00000340: 2071 013e b0f4 cbbe 327a 553e 59e7 ddbc
00000350: f06e 563e b14c cd3c 2565 b2be 4542 febe
00000360: df01 87be cb71 80be 7b61 27be 4608 aebe
00000370: 6f88 c1be 72ca 5b3e 8b4f e43e 0613 b63e
00000380: 7d56 b43d 7647 113e f578 1fbd ac7c 333e
00000390: cfe5 0c3f 9ced 4bbe e7b5 1cbf c750 a3be
000003a0: 8ae2 11bf 919b 203e 9328 22be c93d 8b3e
000003b0: 1734 063e 23d3 bfbe ab72 db3e 4d63 893e
000003c0: fec9 813e 5429 9dbe 7853 e23d 5caf 42be
000003d0: 1f19 4fbe fd35 e63d 73db 18be e136 c43e
000003e0: 177e a4be e700 953e eef9 73bd 3e65 acbe
000003f0: ea4b 3abe a326 813e 9b58 413f 9c47 ef3e

fc1.bias f4 [400]
0.20813562 0.4445062 0.09462047 0.3018311 0.22356841 -0.12696548 0.26599598 -0.26108676
-0.17524788 -0.23932205 -0.133788 0.28414327 0.20859255 -0.41035926 0.3541208 -0.4690848
-0.099648185 0.3388955 -0.004698844 0.14711158 0.25942326 0.503733 0.47854382 -0.10126861
0.4877443 -0.26385495 0.20906986 0.046436284 0.3222539 -0.139819 0.07379921 0.13481563
0.31800258 0.10918126 0.4774431 -0.07430526 -0.4471699 0.07556004 0.12397921 -0.21658193
-0.22867872 -0.21257867 0.17939016 -0.13903695 0.24764965 -0.51906776 -0.26591262 -0.26976272
-0.14625138 0.23487642 0.085687734 0.21974973 0.24741648 0.18353987 -0.510271 0.39444813
-0.3635344 -0.22217403 0.3008996 0.34982458 -0.24925238 0.45338193 0.523525 -0.31835046
-0.3768141 -0.4802109 0.09579996 0.37392378 -0.07964964 -0.07784735 -0.32541505 -0.27859837
-0.29647183 0.15765563 0.2721151 -0.37020382 -0.034003813 0.39238536 0.21704029 0.05353704
0.48043627 0.24852727 0.07654127 0.36827517 0.5443647 -0.49673998 0.495601 -0.14623275
-0.27999648 -0.21838552 0.4651258 0.4894611 0.27320126 0.44352183 0.29738587 -0.3857312
0.43296614 -0.097847104 0.30449173 0.11136015 0.09289511 0.37766874 -0.051334187 0.49130398
-0.06377946 0.4899257 -0.38674852 0.037341893 0.43480632 0.26982322 -0.34180424 0.00060991326
-0.3696038 -0.07818552 0.16770971 0.053953525 -0.12393474 -0.2621421 -0.3749672 -0.16692287
0.1918133 0.3816963 0.3893004 -0.4743206 -0.036970057 0.45349964 0.47418568 0.48831862
0.50179577 0.39893293 0.14608772 -0.42541528 -0.23571534 -0.008408666 0.4367882 -0.23955466
0.28307787 0.12864074 -0.36746195 0.05768485 0.35390428 0.16489784 0.2703564 0.04187388
-0.42117235 -0.15007855 -0.2666116 -0.3181421 0.0929666 0.30566132 0.5010531 -0.101489834
0.27272707 0.50474834 -0.16214293 -0.30583876 -0.4392474 0.2523411 0.35631415 0.388037
0.23966761 0.5368683 0.5282914 0.4307741 0.3493927 0.24774346 -0.41257203 0.25538275
-0.11491744 0.49383104 -0.29389712 -0.5017999 -0.20858638 0.3374029 0.49337655 -0.069019936
-0.32738155 -0.47043133 -0.052942384 -0.05851231 0.56327665 0.033076823 0.32559922 0.45700955
0.43514824 -0.10473823 0.11476155 -0.1662368 0.06249418 0.54090565 0.24696031 0.34226084
-0.22782333 -0.5142914 -0.48306656 0.38037807 -0.32649854 -0.14529997 -0.36301345 0.28983375
-0.2783466 -0.14745362 0.24958034 -0.26974997 0.36465466 0.054622743 0.43172002 0.4077857
0.13720864 0.09765927 -0.16535977 0.28674164 0.10503559 0.4678889 0.19178994 -0.05164533
-0.029407918 -0.38360447 -0.2969882 0.16713981 -0.1762374 0.3885356 0.09577016 -0.33076486
0.41265377 0.13502063 0.26481158 -0.10312593 -0.30402115 0.17606412 0.4600992 -0.117798805
-0.32368788 0.41182953 -0.49829128 -0.3839067 -0.19342573 -0.15846436 0.5283722 -0.15080804
-0.04437616 0.47827756 -0.41286597 -0.15504868 -0.3731003 -0.21430708 0.25611913 0.41276884
-0.3137813 0.40985164 0.49872038 0.40409663 0.117704734 -0.42131722 0.16755277 0.14638986
00000000: 8121 553e 5196 e33e 61c8 c13d 9b89 9a3e
00000010: 1eef 643e 3d03 02be a030 883e 2aad 85be
00000020: 2e74 33be d710 75be b9ff 08be 3a7b 913e
00000030: 4999 553e 9c1a d2be 524f b53e e22b f0be
00000040: 5914 ccbd b683 ad3e c3f8 99bb 6ba4 163e
00000050: 20d3 843e a5f4 003f b203 f53e eb65 cfbd
00000060: 9fb9 f93e ff17 87be 6916 563e f933 3e3d
00000070: 77fe a43e b62c 0fbe 0a24 973d 1c0d 0a3e
00000080: 3cd1 a23e 6d9a df3d 6c73 f43e 5b2d 98bd
00000090: 74f3 e4be 39bf 9a3d d0e8 fd3d a7c7 5dbe
000000a0: c12a 6abe 39ae 59be 0eb2 373e b45f 0ebe
000000b0: df97 7d3e a0e1 04bf b325 88be 571e 8abe
000000c0: ecc2 15be 7283 703e 0d7d af3d 1306 613e
000000d0: bf5a 7d3e e0f1 3b3e 1fa1 02bf 1bf5 c93e
000000e0: 2e21 babe 9781 63be 830f 9a3e 351c b33e
000000f0: 043c 7fbe ad21 e83e bc05 063f d5fe a2be
00000100: c7ed c0be 34de f5be c532 c43d f072 bf3e
00000110: 5a1f a3bd 6e6e 9fbd cd9c a6be 72a4 8ebe
00000120: 28cb 97be 7a70 213e ac52 8b3e 5b8b bdbe
00000130: 9547 0bbd bce6 c83e cf3f 5e3e a849 5b3d
00000140: befb f53e ef7d 7e3e abc1 9c3d 908e bc3e
00000150: 7c5b 0b3f b454 febe 6abf fd3e 0abe 15be
00000160: b35b 8fbe 74a0 5fbe f824 ee3e a59a fa3e
00000170: 09e1 8b3e 4b15 e33e f642 983e 8f7e c5be
00000180: bdad dd3e 1064 c8bd 57e6 9b3e ca10 e43d
00000190: cb3f be3d cc5d c13e cc43 52bd 328c fb3e
000001a0: ce9e 82bd 8bd7 fa3e e703 c6be d0f3 183d
000001b0: ef9e de3e 4526 8a3e f700 afbe 96e2 1f3a
000001c0: b63c bdbe bb1f a0bd 18bc 2b3e 5ffe 5c3d
000001d0: 7fd1 fdbd 7d37 86be b3fb bfbe d4ed 2abe
000001e0: b56a 443e b36d c33e 6252 c73e 26da f2be
000001f0: ea6d 17bd 1b31 e83e 77c8 f23e e604 fa3e
00000200: b075 003f f040 cc3e 0598 153e 08d0 d9be
00000210: 5d5f 71be 80c4 09bc b4a2 df3e d14d 75be
00000220: 95ef 903e 66ba 033e f923 bcbe f346 6c3d
00000230: f132 b53e fbda 283e 276c 8a3e f283 2b3d
00000240: e7a3 d7be 31ae 19be 5181 88be 85e3 a2be
00000250: 4665 be3d a47f 9c3e 0445 003f e7d9 cfbd
00000260: e2a2 8b3e 3037 013f cc08 26be e696 9cbe
00000270: 09e5 e0be da32 813e cf6e b63e c9ac c63e
00000280: 6d6b 753e 3370 093f 1b3e 073f 6c8e dc3e
00000290: 9ae3 b23e 76b0 7d3e a43c d3be 87c1 823e
000002a0: d659 ebbd 6cd7 fc3e af79 96be f575 00bf
000002b0: ab97 55be 13c0 ac3e da9b fc3e 535a 8dbd
000002c0: 8e9e a7be 60dc f0be 1dda 58bd 9baa 6fbd
000002d0: e632 103f 907b 073d f1b4 a63e 28fd e93e
000002e0: c0cb de3e ff80 d6bd 1b08 eb3d fb39 2abe
000002f0: e6f9 7f3d cb78 0a3f 2ae3 7c3e d03c af3e
00000300: 854a 69be 9aa8 03bf 8054 f7be eac0 c23e
00000310: d12a a7be 84c9 14be e6dc b9be 1765 943e
00000320: 7283 8ebe 15fe 16be fd91 7f3e ab1c 8abe
00000330: 04b4 ba3e 19bc 5f3d 680a dd3e 4ac9 d03e
00000340: 6c80 0c3e 9501 c83d 1254 29be cdcf 923e
00000350: e61c d73d 228f ef3e 9564 443e 0e8a 53bd
00000360: e0e8 f0bc ce67 c4be d60e 98be b326 2b3e
00000370: 9477 34be 23ee c63e 2523 c43d 035a a9be
00000380: 5b47 d33e d942 0a3e 6295 873e b033 d3bd
00000390: a9a8 9bbe 274a 343e 1f92 eb3e 8040 f1bd
000003a0: 6bba a5be 52db d23e 0920 ffbe 6b8f c4be
000003b0: 6511 46be 7b44 22be 6743 073f 6c6d 1abe
000003c0: c7c3 35bd cce0 f43e 2b63 d3be 15c5 1ebe
000003d0: 0107 bfbe 5173 5bbe 0c22 833e 7056 d33e
000003e0: f1a7 a0be 13d8 d13e 4758 ff3e c1e5 ce3e
000003f0: 2e0f f13d e4b6 d7be f492 2b3e 39e7 153e

fc2.weight f4 [400, 400]
0.03241533 -0.00262991 -0.0030819182 0.043058556 0.007312703 -0.01323793 0.028350953 0.0266944
0.058048353 -0.047643725 -0.076900534 0.05872078 -0.0144138895 0.06983905 -0.020318579 0.008791807
-0.017880118 0.03446429 -0.025255052 0.10511717 -0.009198283 -0.0011022208 0.024054296 -0.010396488
0.05922232 -0.04900374 -0.032642126 -0.050195303 0.043688193 -0.010326309 0.05864588 0.0019817364
0.03577506 -0.0036448352 0.044451483 0.069521226 0.00989653 0.08916729 0.025874197 -0.0035218676
0.039893392 0.00061374257 0.041864276 -0.039433572 0.05508364 -0.07038631 -0.015344547 -0.08724416
-0.073695935 0.025133928 0.0778171 0.056117967 0.0693086 -0.0012670176 -0.052646 -0.07494592
-0.14405319 -0.1254556 -0.021677947 0.057893056 -0.030377155 0.063228995 -0.0061376076 -0.055322625
-0.13269585 -0.026895152 -0.00032891182 0.037046053 0.04520554 -0.046820633 0.0510389 0.04392499
-0.092831574 -0.00049959944 0.067390025 -0.014669331 -0.008091792 0.0704566 0.048024204 0.057608075
-0.029817404 0.078994505 -0.03510005 0.054553367 -0.03314416 -0.002318997 0.00649152 0.013430402
0.06097478 -0.06356835 -0.017516408 -0.011558368 0.032918796 -0.0066783302 -0.004037881 0.018937219
0.0028771353 -0.015335303 -0.021356298 -0.018620368 0.0040099043 -0.004835426 -0.018303452 0.053599212
-0.09665044 0.04985393 -0.035980146 0.033461116 0.030076714 0.042940326 -0.18279423 0.016073363
0.0103636095 0.11742232 0.05671441 0.020848192 -0.05228927 -0.019256199 -0.050781608 0.016436463
0.0643976 -0.01189019 0.034532513 -0.026580969 0.06498888 0.037647035 0.062600605 0.066436976
0.036927626 -0.007935013 0.059342917 -0.06555836 0.01183798 0.046989653 0.04382432 -0.05271884
0.021946914 -0.06003666 -0.10219947 0.03496687 0.047337603 0.0614736 0.048677146 0.03871505
-0.052638136 -0.05939434 -0.08148716 -0.033040907 0.027869675 0.0087657245 0.04131085 0.032813404
0.03908064 -0.015212743 -0.033083912 0.016526861 0.08643605 -0.012764501 0.06486365 -0.01281438
-0.021664143 -0.017277809 0.008751781 0.041217063 0.0023561777 -0.022148306 0.034859344 0.009421642
0.22210917 0.042659108 -0.09815566 -0.0766449 -0.0022818628 -0.040708136 -0.002967955 -0.048040092
-0.03829586 0.024179772 0.03480052 0.07926251 0.033614054 -0.027395623 0.021116698 -0.03145486
0.068096265 -0.10683571 0.066851415 0.02005044 0.031149447 0.063263685 0.025096348 0.040632218
-0.011218738 0.029023737 -0.020464953 0.053705856 0.014109316 0.014482994 -0.012533224 -0.031864412
-0.16544823 -0.06626729 -0.055979997 -0.053328533 0.0644035 0.023309296 0.004175691 -0.009221141
-0.03081209 0.01842987 -0.031895988 0.033864968 -0.027634453 0.023507338 -0.023358542 0.028081568
0.0073566865 -0.032252036 0.018838594 0.09090482 0.018072825 -0.0011212646 0.047384825 -0.015603335
0.0761051 0.044081848 0.03909574 0.058069695 -0.005908807 0.03593037 -0.020068344 0.015241494
-0.06275311 0.046707965 -0.08183686 0.0298146 0.019549442 -0.039584834 -0.012841948 -0.16594534
-0.06337101 -0.001217676 -0.033770587 0.04593546 0.1691786 0.023753209 0.05024417 0.036189087
-0.12173499 -0.020003144 0.050074007 0.030394576 -0.01013858 0.035924535 -0.002976356 -0.009246612
00000000: f0c5 043d 915a 2cbb 02fa 49bb 2b5e 303d
00000010: 669f ef3b e7e3 58bc 4240 e83c 37ae da3c
00000020: 1cc4 6d3d 1126 43bd 077e 9dbd 3385 703d
00000030: 3c28 6cbc c707 8f3d 2673 a6bc 830b 103c
00000040: 5379 92bc 6d2a 0d3d afe3 cebc ac47 d73d
00000050: 65b4 16bc 6578 90ba 840d c53c 0856 2abc
00000060: 1a93 723d 25b8 48bd c0b3 05bd 9799 4dbd
00000070: 64f2 323d ae2f 29bc aa36 703d 05e0 013b
00000080: df88 123d 30de 6ebb c212 363d 2561 8e3d
00000090: 0e25 223c 579d b63d 20f6 d33c 22cf 66bb
000000a0: 4167 233d 91e3 203a e079 2b3d 1985 21bd
000000b0: 629f 613d b326 90bd b267 7bbc 11ad b2bd
000000c0: e5ed 96bd abe5 cd3c 925e 9f3d f4db 653d
000000d0: abf1 8d3d 0e12 a6ba 55a3 57bd 3f7d 99bd
000000e0: ae82 13be 6f77 00be f395 b1bc 4521 6d3d
000000f0: 83d9 f8bc 347e 813d fc1d c9bb fa99 62bd
00000100: 6ce1 07be 3953 dcbc cc71 acb9 9abd 173d
00000110: 7229 393d fec6 3fbd 2a0e 513d b1ea 333d
00000120: 7b1e bebd 8df7 02ba c803 8a3d a257 70bc
00000130: 7093 04bc 8d4b 903d 07b5 443d 72f6 6b3d
00000140: a143 f4bc dfc7 a13d 12c5 0fbd 5a73 5f3d
00000150: 2cc2 07bd 50fa 17bb d1b6 d43b 300b 5c3c
00000160: b1c0 793d 2030 82bd 927e 8fbc 4f5f 3dbc
00000170: dcd5 063d e5d5 dabb 3350 84bb 3a22 9b3c
00000180: 528e 3c3b ec40 7bbc 67f3 aebc be89 98bc
00000190: 8465 833b 7e72 9ebb 1ff1 95bc d98a 5b3d
000001a0: aaf0 c5bd a233 4c3d eb5f 13bd 860e 093d
000001b0: 7163 f63c 32e2 2f3d 692e 3bbe 49ac 833c
000001c0: 21cc 293c 1d7b f03d 5f4d 683d d4c9 aa3c
000001d0: 462d 56bd 2dbf 9dbc 6000 50bd c3a5 863c
000001e0: e4e2 833d 12cf 42bc f771 0d3d 55c0 d9bc
000001f0: e418 853d c733 1a3d bf34 803d 1c10 883d
00000200: 6c41 173d db01 02bc 8f11 733d 7643 86bd
00000210: 16f4 413c 3978 403d 2181 333d b6ef 57bd
00000220: 04ca b33c 00e9 75bd f54d d1bd 6c39 0f3d
00000230: 13e5 413d becb 7b3d b061 473d ac93 1e3d
00000240: 169b 57bd 7b47 73bd bde2 a6bd e755 07bd
00000250: f24e e43c 1d9e 0f3c 9135 293d 5967 063d
00000260: 0513 203d de3e 79bc ff82 07bd 5763 873c
00000270: 6205 b13d 3322 51bc 3cd7 843d 68f3 51bc
00000280: 0079 b1bc 318a 8dbc a163 0f3c 39d3 283d
00000290: 1a6a 1a3b 5d70 b5bc acc8 0e3d 3b5d 1a3c
000002a0: 9670 633e 51bb 2e3d d605 c9bd 00f8 9cbd
000002b0: 4e8b 15bb 93bd 26bd 0682 42bb b0c5 44bd
000002c0: 1fdc 1cbd a814 c63c fd8a 0e3d 6254 a23d
000002d0: e4ae 093d c96c e0bc edfc ac3c d0d6 00bd
000002e0: 0e76 8b3d aecc dabd 65e9 883d d240 a43c
000002f0: 202d ff3c 6490 813d db96 cd3c f86d 263d
00000300: ccce 37bc 30c3 ed3c 1ea6 a7bc acfa 5b3d
00000310: c32a 673c 144a 6d3c 2758 4dbc 4284 02bd
00000320: 436b 29be 25b7 87bd 484b 65bd 056f 5abd
00000330: fbe5 833d 23f3 be3c 3cd4 883b 4514 17bc
00000340: a369 fcbc 3dfa 963c 5ea5 02bd feb5 0a3d
00000350: a661 e2bc 7692 c03c 6a5a bfbc 510b e63c
00000360: 5c10 f13b b61a 04bd 6553 9a3c 4e2c ba3d
00000370: 760d 943c 66f7 92ba 9716 423d 21a5 7fbc
00000380: fedc 9b3d 2b8f 343d db22 203d 7dda 6d3d
00000390: aa9e c1bb b92b 133d 5e66 a4bc 76b7 793c
000003a0: b484 80bd da50 3f3d 159a a7bd bf3d f43c
000003b0: 2726 a03c b523 22bd 0967 52bc 93ed 29be
000003c0: a9c8 81bd 6d9a 9fba 0753 0abd d226 3c3d
000003d0: 283d 2d3e 1796 c23c d5cc 4d3d 023b 143d
000003e0: 3250 f9bd a2dd a3bc 671a 4d3d 0cfe f83c
000003f0: 491c 26bc 9b25 133d f80e 43bb 1a7f 17bc

fc2.bias f4 [400]
0.03689159 -0.023681212 -0.025075996 0.009809131 0.07119452 0.030633915 0.047383234 0.07716002
0.03221985 0.0012848749 0.037078593 0.016736358 0.057374824 0.04721263 0.06470417 0.032764636
0.039482933 0.032206327 -0.08185877 0.013178188 0.0011224578 4.086656e-05 0.032774452 0.016482078
0.032624066 0.06478445 0.046108495 0.014057122 -0.03751083 0.001026543 0.055290177 0.013469817
-0.011147698 -0.007816272 -0.036618058 -0.0074186693 -0.008453322 0.05029866 -0.042545687 0.06864224
0.009516554 0.051873755 -0.040969677 -0.010617717 -0.071914256 0.051380154 0.036385104 0.07427686
0.044477746 -0.020907277 -0.051871773 0.033126593 -0.01084899 0.022831015 0.05097402 0.036806367
-0.02938637 0.0067088893 0.031530164 -0.02589484 -0.045569137 -0.02012627 0.023562578 -0.0044634924
-0.019361315 0.04595793 0.038604125 -0.030156562 0.049615208 0.024736319 0.012978258 0.012193668
-0.015739746 0.016648374 -0.020296859 0.0018964543 0.043610327 0.003111116 -0.033686273 -0.020456895
0.021938758 0.052401796 -0.0074389707 -0.022220843 -0.0045145475 0.011166666 0.008303816 0.011796834
-0.007433529 -0.0064726663 0.036244523 0.01095011 -0.046078745 -0.026060581 0.021580512 -0.04176205
-0.0020554077 -0.018520048 0.037828177 0.05907838 -0.038611166 -0.043774873 -0.010678644 0.02168979
0.06360367 -0.04577353 0.021346679 -0.035086107 0.036903672 -0.03825717 0.033539016 0.030244866
0.06829309 0.032707207 0.043529112 0.017536664 -0.020162739 0.056245994 -0.00821485 0.05448564
0.0664776 0.038540065 0.06788442 0.059711173 0.03248561 0.034917448 -0.0107430825 -0.0095338635
0.0019862878 0.028500639 -0.04013725 0.034611832 0.04615364 0.014950893 0.020972736 0.08441958
0.07390279 -0.015844196 0.08405285 -0.043689463 -0.0027379538 -0.0024221798 0.037329804 0.030998299
0.013443322 -0.010394983 0.07833314 -0.0060843877 0.012549315 0.046634577 -0.0053125247 -0.013356185
-0.018596333 0.038687665 0.05497299 -0.044044692 0.01636158 0.016391274 -0.047895104 0.02695438
-0.006222819 -0.005373178 0.03619127 0.09323381 0.06733593 0.015311389 -0.047611773 0.011977494
-0.018770797 0.039052337 0.028049136 -0.0055148117 0.061612416 0.017904267 -0.003320818 -0.026652822
0.06571585 0.05081696 -0.0018753918 -0.0045906124 -0.051055763 -0.011391949 0.054135684 0.028671402
0.08958931 0.011945073 0.031063464 0.049150556 0.08814413 0.08581732 0.039849028 0.09894535
0.0095806625 0.033765394 0.07653106 0.034261912 -0.060005058 -0.0026179368 0.02718339 0.02707282
-0.021389795 0.014115078 -0.00834188 0.004634791 0.03737163 -0.0026655165 -0.019846708 0.06965019
0.04781998 0.039341338 0.06267378 0.009997142 0.01020217 0.0440751 0.06810842 0.046441574
-0.041432194 0.030038878 -0.024317425 -0.02812307 0.021763265 0.038444582 -0.009418939 0.023944685
-0.017271679 0.016709743 -0.034726083 -0.024477946 0.04249596 0.06813882 -0.0039934316 0.0661216
0.0083784675 -0.0067299292 -0.009420863 0.060900982 0.044327397 -0.04161269 -0.02529347 -0.017781697
-0.005621088 0.041989822 0.019484483 0.01693766 0.01815108 -0.03732126 -0.033775087 0.04825566
0.018424194 -0.005203698 -0.04698457 0.028864391 0.03654139 0.063911214 0.034673143 0.028432336
00000000: a31b 173d 1aff c1bc 2d6c cdbc 7ab6 203c
00000010: 6fce 913d faf3 fa3c ec14 423d 1306 9e3d
00000020: f6f8 033d 3f69 a83a b9df 173d b01a 893c
00000030: dd01 6b3d 0862 413d 9f83 843d 3634 063d
00000040: dbb8 213d c8ea 033d 92a5 a7bd 54e9 573c
00000050: 6f1f 933a 2268 2b38 813e 063d 6c05 873c
00000060: d0a0 053d b6ad 843d 43dc 3c3d d84f 663c
00000070: f5a4 19bd 118d 863a f477 623d 82b0 5c3c
00000080: d6a4 36bc d20f 00bc d1fc 15bd 4f18 f3bb
00000090: cd7f 0abc f805 4e3d 6344 2ebd 4d94 8c3d
000000a0: 52eb 1b3c 9379 543d d2cf 27bd eff5 2dbc
000000b0: c847 93bd ff73 523d 8c08 153d 771e 983d
000000c0: 4c2e 363d bd45 abbc 7f77 54bd c0af 073d
000000d0: f6bf 31bc 1c08 bb3c 22ca 503d 46c2 163d
000000e0: afbb f0bc 3ed6 db3b c625 013d 6a21 d4bc
000000f0: b4a6 3abd d9df a4bc 4f06 c13c 7d42 92bb
00000100: 9f9b 9ebc 623e 3c3d 5c1f 1e3d e50a f7bc
00000110: 5139 4b3d d2a3 ca3c c2a2 543c f3c7 473c
00000120: a4f0 80bc 2c62 883c 9945 a6bc 7292 f83a
00000130: bea0 323d dde3 4b3b 9efa 09bd 3895 a7bc
00000140: e9b8 b33c 44a3 563d 9cc2 f3bb 7c08 b6bc
00000150: c5ee 93bb 64f4 363c bb0c 083c 8247 413c
00000160: f694 f3bb a918 d4bb 2375 143d 1768 333c
00000170: 11bd 3cbd 007d d5bc 9dc9 b03c af0e 2bbd
00000180: 05b4 06bb 5bb7 97bc b8f1 1a3d 2cfc 713d
00000190: be26 1ebd 484d 33bd 7bf5 2ebc c9ae b13c
000001a0: a442 823d 067d 3bbd 3bdf ae3c 73b6 0fbd
000001b0: 4e28 173d 8db3 1cbd 3560 093d 15c4 f73c
000001c0: 3fdd 8b3d fef7 053d 954b 323d 0da9 8f3c
000001d0: 542c a5bc 3362 663d 9497 06bc 562c 5f3d
000001e0: 6825 883d 30dc 1d3d fd06 8b3d b493 743d
000001f0: a20f 053d 9905 0f3d c103 30bc ec33 1cbc
00000200: 612c 023b 2c7a e93c f566 24bd 23c5 0d3d
00000210: 990b 3d3d 97f4 743c 04cf ab3c 2ce4 ac3d
00000220: 595a 973d b0cb 81bc e723 ac3d b9f3 32bd
00000230: 3e6f 33bb 6fbd 1ebb 23e7 183d 25f0 fd3c
00000240: 6141 5c3c b84f 2abc 206d a03d 8b5f c7bb
00000250: a49b 4d3c e603 3f3d b014 aebb e6d3 5abc
00000260: 5657 98bc f576 1e3d 5c2b 613d 3568 34bd
00000270: b808 863c fe46 863c a82d 44bd 6fcf dc3c
00000280: cae8 cbbb 7c11 b0bb 4c3d 143d 5ef1 be3d
00000290: 6ce7 893d 9fdc 7a3c 9004 43bd 403d 443c
000002a0: 37c5 99bc 58f5 1f3d 4dc7 e53c 98b5 b4bb
000002b0: 4d5d 7c3d f8ab 923c 15a2 59bb 0557 dabc
000002c0: 0896 863d 7225 503d b5cf f5ba d96c 96bb
000002d0: d91f 51bd 4ca5 3abc 61bd 5d3d 4ae0 ea3c
000002e0: 9a7a b73d 44b5 433c ce78 fe3c 1852 493d
000002f0: e984 b43d fec0 af3d bc38 233d dca3 ca3d
00000300: 36f8 1c3c 954d 0a3d 51bc 9c3d 3856 0c3d
00000310: ddc7 75bd b191 2bbb b3af de3c d2c7 dd3c
00000320: a739 afbc ee42 673c 61ac 08bc 72df 973b
00000330: ff12 193d f2af 2ebb 9095 a2bc c2a4 8e3d
00000340: e2de 433d 6224 213d 1c5b 803d 0dcb 233c
00000350: 0127 273c 1888 343d 6d7c 8b3d 8539 3e3d
00000360: ceb4 29bd 1814 f63c 5635 c7bc 5a62 e6bc
00000370: e048 b23c 1178 1d3d e551 1abc a527 c43c
00000380: 567d 8dbc dfe2 883c f03c 0ebd f985 c8bc
00000390: 3e10 2e3d 5e8c 8b3d 55db 82bb c36a 873d
000003a0: d745 093c bd86 dcbb f759 1abc 4f73 793d
000003b0: a590 353d 1172 2abd 4034 cfbc ecaa 91bc
000003c0: 1b31 b8bb 85fd 2b3d ec9d 9f3c d9c0 8a3c
000003d0: 93b1 943c 2dde 18bd bf57 0abd baa7 453d
000003e0: 56ee 963c c883 aabb e472 40bd 0475 ec3c
000003f0: 6dac 153d e2e3 823d 6d05 0e3d eeea e83c

fc3.weight f4 [2, 400]
0.105931416 -0.101542674 0.04625869 0.0942749 0.09464989 -0.117400065 -0.16657214 0.06972821
-0.09431881 -0.004620172 -0.010308288 0.09347198 0.06450695 -0.046011876 0.22648437 0.09113903
-0.012856822 0.0752971 0.24789089 0.18330707 -0.024781965 -0.010019587 -0.040334247 0.1718618
0.091951415 0.11857069 0.080368176 -0.14927599 0.016933624 0.06767472 0.027670588 -0.12592077
0.11816144 -0.098251656 -0.14176926 0.11793242 0.007447783 0.07957519 0.026585635 0.18345468
0.017744273 0.09443488 -0.15280722 0.13760093 0.00845295 0.069527514 -0.03643436 0.15962884
0.098538 0.011949457 -0.056292694 0.03320056 0.010155813 0.081684895 0.08691701 0.03959072
0.10293018 -0.001926234 0.03903237 -0.019023852 0.0025660484 0.008381553 0.11685889 -0.1607273
-0.08605652 -0.06387109 0.1244219 -0.020204175 0.13312928 0.035249967 0.12154955 0.020834211
-0.046447907 -0.0046272534 0.045370575 -0.22934332 -0.021864908 -0.016906014 0.02603261 -0.0896075
0.13947761 0.12454028 -0.12709892 -0.12945853 -0.14176461 -0.13943748 -0.031125456 -0.30580476
0.0013026968 0.022587828 0.091471605 0.0198114 0.011537547 0.03273552 -0.18187879 -0.13964419
-0.080288865 -0.2361212 -0.21183115 0.10444406 -0.026993744 0.015031696 0.029274259 0.00041148067
0.116920315 -0.065398544 0.08365346 0.028606033 0.020777922 -0.04662636 0.11960338 0.13177107
0.08012697 0.097546324 0.09898065 0.06769409 0.054324314 -0.12043977 0.020757318 0.002989066
0.10144408 0.0057455893 0.08081912 0.117901176 0.07915311 0.09979018 0.105068155 0.08510883
0.07664044 -0.05174687 -0.28072283 0.07254594 -0.039783373 -0.1588968 0.117074974 0.12848032
-0.123098604 -0.10913376 0.04820356 0.045360833 -0.034138765 0.035352293 -0.02761792 0.013191662
-0.16399238 0.03442249 0.16925237 0.00085240824 0.06647163 0.09642802 -0.010145986 -0.0930556
0.0039787814 0.1233546 0.11978928 0.033976912 -0.03506817 0.017790992 0.034311544 -0.12475626
-0.021325978 0.09542886 0.13884053 0.08898629 0.10595504 -0.07921502 -0.2655288 -0.20906238
0.03010252 0.10059285 -0.18730225 0.01490284 0.060659263 0.0059433775 -0.12399898 0.002968574
0.08507731 0.15158473 0.028270207 0.11647483 -0.2558254 0.1124594 0.10048648 0.029567327
0.10165942 -0.032954928 0.011834629 0.1254862 -0.18988347 0.09049273 0.019273018 0.0646396
0.09999049 0.016316365 -0.12581891 -0.010674439 -0.08927611 -0.019144153 -0.20553939 0.0581434
0.029863838 0.101909444 -0.13567527 0.07134948 0.113703534 0.17078763 -0.0005965121 0.20756549
-0.0035283193 0.09164023 0.09384757 0.16703035 -0.0850448 -0.020403722 0.10873179 -0.028160037
-0.0029694512 -0.1263438 0.03522902 -0.097515784 0.09935621 0.1413777 -0.11365127 0.018056566
-0.15449314 0.12568933 -0.063269794 -0.038429838 0.07989001 0.08902277 0.023349047 0.13149935
0.104807034 -0.0124303475 -0.0023510633 0.06638651 0.11534549 0.025841279 -0.029647214 0.0130021535
-0.10493369 0.11747937 0.0005674672 0.014923944 -0.10757165 -0.049410492 -0.08614585 0.03527458
0.03923137 0.08388632 -0.12318401 0.10986386 -0.026730625 -0.0096162595 -0.020248836 0.01929342
00000000: 92f2 d83d 9bf5 cfbd c179 3d3d 3313 c13d
00000010: cdd7 c13d 726f f0bd e391 2abe aacd 8e3d
00000020: 382a c1bd d064 97bb 18e4 28bc 3d6e bf3d
00000030: 381c 843d f376 3cbd 85eb 673e 1aa7 ba3d
00000040: 6ca5 52bc 5e35 9a3d 1cd7 7d3e d9b4 3b3e
00000050: 8c03 cbbc 3229 24bc 8635 25bd 8afc 2f3e
00000060: 0651 bc3d 31d5 f23d 1298 a43d cedb 18be
00000070: 62b8 8a3c 0b99 8a3d 6ead e23c 60f1 00be
00000080: a0fe f13d 2a38 c9bd f62b 11be 8d86 f13d
00000090: 880c f43b 51f8 a23d 1eca d93c 8bdb 3b3e
000000a0: 705c 913c 1367 c13d 7f79 1cbe 42e7 0c3e
000000b0: 3e7e 0a3c 7164 8e3d 323c 15bd be75 233e
000000c0: 4ace c93d a8c7 433c 2b93 66bd 4ffd 073d
000000d0: 9164 263c 694a a73d 8c01 b23d e129 223d
000000e0: 0fcd d23d b079 fcba 68e0 1f3d e9d7 9bbc
000000f0: 262b 283b c852 093c b753 ef3d b395 24be
00000100: 673e b0bd d9ce 82bd e9d0 fe3d 3a83 a5bc
00000110: 0b53 083e 4562 103d f8ee f83d 82ac aa3c
00000120: 2940 3ebd 37a0 97bb 7fd6 393d fad8 6abe
00000130: 091e b3bc 7b7e 8abc 5742 d53c 2384 b7bd
00000140: 38d3 0e3e f90e ff3d 3826 02be c790 04be
00000150: be2a 11be b3c8 0ebe d0fa febc 7192 9cbe
00000160: 40bf aa3a 1c0a b93c 7755 bb3d 844b a23c
00000170: fb07 3d3c ae15 063d 6f3e 3abe e3fe 0ebe
00000180: 7d6e a4bd c1c9 71be 44ea 58be c4e6 d53d
00000190: fc21 ddbc 8147 763c 92d0 ef3c 00bc d739
000001a0: eb73 ef3d acef 85bd 8152 ab3d 3357 ea3c
000001b0: 7636 aa3c 48fb 3ebd 9ef2 f43d ffee 063e
000001c0: 9c19 a43d 5ec6 c73d 5eb6 ca3d 33a3 8a3d
000001d0: 2c83 5e3d 20a9 f6bd 400b aa3c 35e4 433b
000001e0: eac1 cf3d 7f45 bc3b 7f84 a53d 2c76 f13d
000001f0: 071b a23d cb5e cc3d f92d d73d 8a4d ae3d
00000200: aaf5 9c3d 87f4 53bd e7ba 8fbe f792 943d
00000210: e4f3 22bd d8b5 22be 01c5 ef3d 5890 033e
00000220: 1f1b fcbd 8581 dfbd 1971 453d 48cc 393d
00000230: 17d5 0bbd 91cd 103d fa3e e2bc d721 583c
00000240: 9eed 27be 99fe 0c3d 7e50 2d3e 2674 5f3a
00000250: 4722 883d 0e7c c53d 5a3b 26bc ef93 bebd
00000260: 7060 823b 56a1 fc3d 1554 f53d 602b 0b3d
00000270: a4a3 0fbd 6abe 913c 438a 0c3d 3680 ffbd
00000280: d1b3 aebc 3570 c33d 362c 0e3e 723e b63d
00000290: f5fe d83d 7c3b a2bd 64f3 87be 7314 56be
000002a0: 8f99 f63c a003 ce3d 29cc 3fbe 0b2b 743c
000002b0: d975 783d aac0 c23b 2df3 fdbd 688c 423b
000002c0: 033d ae3d 0739 1b3e ec96 e73c 5b8a ee3d
000002d0: 8cfb 82be 1d51 e63d dbcb cd3d 2e37 f23c
000002e0: d032 d03d bffb 06bd 08e6 413c 747f 003e
000002f0: d070 42be 4154 b93d 73e2 9d3c c461 843d
00000300: d0c7 cc3d e6a9 853c acd6 00be d8e3 2ebc
00000310: 65d6 b6bd 33d4 9cbc eb78 52be c627 6e3d
00000320: 02a5 f43c e6b5 d03d 75ee 0abe ad1f 923d
00000330: 66dd e83d f4e2 2e3e 405f 1cba 0c8c 543e
00000340: 603b 67bb dfad bb3d 2833 c03d 010a 2b3e
00000350: f82b aebd b525 a7bc c6ae de3d e1af e6bc
00000360: 209b 42bb 4560 01be 4e4c 103d 5bb6 c7bd
00000370: 457b cb3d 51c5 103e ffc1 e8bd 5deb 933c
00000380: 7333 1ebe b4b4 003e 9893 81bd 9b68 1dbd
00000390: 609d a33d 9251 b63d 8046 bf3c c4a7 063e
000003a0: 12a5 d63d a8a8 4bbc 4c14 1abb a7f5 873d
000003b0: 423a ec3d 17b1 d33c b7de f2bc fc06 553c
000003c0: 79e7 d6bd 0699 f03d 14c2 143a 8f83 743c
000003d0: 864e dcbd a862 4abd 3c6d b0bd 147c 103d
000003e0: 13b1 203d 97cc ab3d e647 fcbd 4e00 e13d
000003f0: 2ffa dabc 848d 1dbc e3e0 a5bc 3c0d 9e3c

fc3.bias f4 [2]
0.077347234 -0.028380387
00000000: 3a68 9e3d fc7d e8bc
