imitation_learning/models/agent.pt (torch, 64757 bytes, 14 tensors)

conv.0.weight f4 [4, 1, 3, 3]
0	0x3de530bc	0.11190936
1	0xbe94bc3a	-0.29049855
2	0x3c9ff5e7	0.019526435
3	0xbd9bafc0	-0.07601881
4	0x3de9efe3	0.11422708
5	0x3e194b2f	0.14970087
6	0xbe68294a	-0.22672
7	0x3eb4ea26	0.3533489
8	0xbe376c1f	-0.17912339
9	0xbe2a7af0	-0.1664846
10	0x3d9f89ff	0.077899925
11	0x3e629f7f	0.22131155
12	0x3d9054b5	0.070474066
13	0x3eaed7d6	0.34149045
14	0xbe0d6220	-0.13806963
15	0x3e929cb9	0.28635195
16	0xbe9397a7	-0.2882664
17	0x3acd9b7b	0.0015686596
18	0xbdc45065	-0.095856465
19	0xbe61644e	-0.2201092
20	0xbd79f92b	-0.06102864
21	0x3dfe064e	0.12403546
22	0xbe089fec	-0.13342255
23	0xbe888e14	-0.26670897
24	0xbe8ef155	-0.27918497
25	0xbe916c31	-0.28402856
26	0x3c8f79fd	0.017514223
27	0x3de36c40	0.111046314
28	0xbe9ed997	-0.31025383
29	0x3d2a45b9	0.0415704
30	0xbe80fbdf	-0.25192162
31	0xbe68860a	-0.22707382
32	0x3e651573	0.22371463
33	0xbc322f47	-0.01087553
34	0x3e2b4e6e	0.16729137
35	0x3e735d5f	0.23766087

conv.0.bias f4 [4]
0	0xbe0fbf17	-0.14037739
1	0x3dc91076	0.09817593
2	0xbe05d995	-0.13071282
3	0xbdf2865f	-0.118420355

conv.1.weight f4 [4]
0	0x3f7b764b	0.98227376
1	0x3f8083d0	1.0040226
2	0x3f65388d	0.89539415
3	0x3f8c086a	1.0940068

conv.1.bias f4 [4]
0	0xbd11faac	-0.03563945
1	0xbda979db	-0.08275195
2	0xbd4109c2	-0.047128446
3	0xbc5120b2	-0.012764143

conv.1.running_mean f4 [4]
0	0xc0250f91	-2.579075
1	0x4267ad2d	57.919117
2	0xc32abfcc	-170.7492
3	0xc0379a08	-2.8687763

conv.1.running_var f4 [4]
0	0x4245193b	49.27464
1	0x4412f46d	587.81915
2	0x459915d8	4898.7305
3	0x431326b0	147.15112

conv.4.weight f4 [8, 4, 5, 5]
0	0xbd429d8d	-0.047513533
1	0xbd8b2965	-0.06795005
2	0xbd0fae47	-0.035078313
3	0xbc44d37e	-0.012013314
4	0xbd0cd955	-0.03438695
5	0x3bf70d03	0.007539393
6	0xbdbb7f0d	-0.091550924
7	0x3daec1aa	0.08533032
8	0x3dc1d28b	0.09463986
9	0x3c7a72ff	0.015286206
10	0xbc8248d3	-0.015903866
11	0xbdb011a7	-0.08597117
12	0xbb2f4230	-0.0026742332
13	0x3ab03681	0.0013443978
14	0xbdcdfd0b	-0.1005803
15	0x3cf2f253	0.029656565
16	0xbc43b596	-0.011945149
17	0xbd08bac1	-0.033381227
18	0xbd996dc4	-0.07491639
19	0xbdcac179	-0.09900183
20	0xbcc26c2e	-0.023733225
21	0x3cdd7a9b	0.027036002
22	0xbd0d21de	-0.034456126
23	0x3e5875c8	0.2113868
24	0xbd50472d	-0.05084913
25	0x3db4107c	0.08792207
26	0xbd900c0d	-0.070335485
27	0x3d396eb7	0.0452716
28	0xbcc52c87	-0.024069084
29	0x3d6e5dd0	0.058194935
30	0x3da0f51a	0.078592494
31	0x3cac49b6	0.021031242
32	0x3d9e099a	0.07716675
33	0x3a37e276	0.00070146413
34	0x3dbe4aac	0.09291586
35	0xbdff26ae	-0.124585494
36	0x3cbbf82a	0.022945482
37	0xbde842a4	-0.11340836
38	0x3b4d183e	0.0031294967
39	0xbb8be528	-0.004269261
40	0xbd97d459	-0.07413549
41	0xbd08c6bb	-0.03339265
42	0x3cf5e8d9	0.030018257
43	0x3ddf92af	0.109166496
44	0xbd06366f	-0.032766756
45	0x3c73250c	0.014840376
46	0xbdfa0abf	-0.12209081
47	0xbde82444	-0.11335042
48	0x3d714aea	0.058909334
49	0xbc2677f6	-0.010160437
50	0x3c81e944	0.0158583
51	0xbd15a33f	-0.036532637
52	0x3dd270b3	0.10275402
53	0x3e035f5a	0.12829342
54	0x3d0068dc	0.03135
55	0xbd78a299	-0.06070194
56	0xbd8b25c0	-0.067943096
57	0xbd975f7e	-0.073912606
58	0x3d954590	0.072886586
59	0xbb230d20	-0.002487965
60	0xbd8bf518	-0.06833857
61	0xbd9fb005	-0.07797245
62	0xbd8635a7	-0.06553202
63	0x3d79605c	0.06088291
64	0x3d2328a1	0.03983367
65	0xbca52cf9	-0.020163046
66	0x3db3ad8b	0.08773335
67	0x3c5f367b	0.013623829
68	0xbd86f46e	-0.0658959
69	0xbd2ac3b1	-0.041690532
70	0xbd10bc51	-0.035335843
71	0x3da28a33	0.07936516
72	0x3c6b56c3	0.014363947
73	0x3cc502e9	0.02404924
74	0xbd9ec4d3	-0.07752385
75	0x3cc56f2d	0.024100864
76	0x3dd3e018	0.10345477
77	0xbb1691fc	-0.0022975197
78	0x3dbc519c	0.09195253
79	0xb8036958	-3.1330943e-05
80	0x3da34176	0.0797147
81	0x3d1bfe34	0.038084224
82	0xbdd7fed3	-0.10546651
83	0x3d62d6f0	0.05538076
84	0xbc57dfdc	-0.013175931
85	0x3d221c3f	0.03957772
86	0xbd90674c	-0.07050952
87	0xbdb2cff5	-0.08731071
88	0xbd8cba43	-0.06871464
89	0xbda1e1c5	-0.0790439
90	0xbd615a16	-0.055017553
91	0xbd7d79f6	-0.06188389
92	0xbc18efc6	-0.00933451
93	0xbdaed023	-0.08535793
94	0x3c86a641	0.016436698
95	0x3d83acb1	0.06429423
96	0xbd3203c4	-0.043460622
97	0x3c919632	0.017771814
98	0x3de3b303	0.11118128
99	0x3d9f67e7	0.0778349
100	0x3d6c40ae	0.05767887
101	0x3cce7121	0.025200428
102	0xbd4ef019	-0.050521944
103	0xbd5aa128	-0.053376347
104	0x3d9ac616	0.07557313
105	0x3dee60f5	0.11639587
106	0xbd5014bf	-0.050801035
107	0xbdcebfb7	-0.100951605
108	0x3cf0d1ce	0.029396918
109	0xbddbcb84	-0.10732177
110	0x3d3d0047	0.046142843
111	0xbdce71d2	-0.10080303
112	0xbd271f65	-0.040801425
113	0x3d6d62ba	0.05795548
114	0xbc687deb	-0.014190177
115	0x3a741184	0.00093104714
116	0x3c2a4e5e	0.010394661
117	0xbd3195a9	-0.043355618
118	0xbc656f1f	-0.014003544
119	0x3d46ce0b	0.04853634
120	0x3d0c769e	0.03429281
121	0xbd9720ce	-0.07379304
122	0xbdab02fe	-0.0835018
123	0x3db398f5	0.087694086
124	0xbd9e07b6	-0.077163145
125	0x3d6d5dbb	0.057950716
126	0x3c2a5440	0.010396063
127	0x3d67f3db	0.056629043
128	0xbd9b0ada	-0.07570429
129	0xbc6ed3e1	-0.014576883
130	0x3db77200	0.08957291
131	0xbdacf734	-0.08445588
132	0xbd5a89a8	-0.053353935
133	0xbd1112c7	-0.035418298
134	0xbd314e78	-0.043287724
135	0x3e05db25	0.13071878
136	0xbe001adc	-0.12510246
137	0xbd7770e4	-0.060410395
138	0xbd32aa17	-0.04361924
139	0xbc75481f	-0.014970808
140	0x3d8d3145	0.06894163
141	0xbc417e59	-0.011809909
142	0xbdb40840	-0.08790636
143	0x3de8d7c6	0.113692805
144	0xbd157983	-0.036492836
145	0x3cf359cc	0.029705904
146	0xbe1567f8	-0.14590442
147	0x3c449224	0.011997733
148	0xbdb5f804	-0.08885196
149	0x3d103fb5	0.035217006
150	0xbd8f7e78	-0.07006544
151	0x3d615860	0.05501592
152	0x3d905d3a	0.070490316
153	0xbd01cbfc	-0.031688675
154	0x3d9f5584	0.07779983
155	0x3d691706	0.056906722
156	0x3dae0884	0.08497718
157	0x3d60876f	0.05481666
158	0x3ddbf8cb	0.10740813
159	0x3d3d5680	0.04622507
160	0xbdab9158	-0.083773315
161	0xbb8d0ce8	-0.004304517
162	0x3d854e07	0.06509023
163	0x3d200aa4	0.039072648
164	0x3d2b6425	0.041843552
165	0x3d5035a9	0.050832424
166	0x3d9a89d4	0.0754582
167	0xbb5bd864	-0.0033545727
168	0x3d1dc04a	0.03851346
169	0x3c8c1a54	0.017102398
170	0x3ce84fab	0.028358301
171	0x3ddae7ec	0.10688767
172	0x3cf2bd22	0.029631201
173	0x3ca3b8cb	0.019985577
174	0x3d80642d	0.06269107
175	0xbd914f65	-0.070952214
176	0xbd839173	-0.064242266
177	0x3b34ccb1	0.0027587826
178	0x3c3713c3	0.011174145
179	0x3d4091c7	0.047014024
180	0xbe022c14	-0.12712127
181	0x3d35a3ef	0.044345792
182	0x3d45ea00	0.048318863
183	0x3b8a0317	0.004211794
184	0xbdc5b54f	-0.096537225
185	0x3a56d026	0.00081944687
186	0x3d522566	0.051305197
187	0x3dcabd10	0.09899342
188	0xbd511939	-0.051049445
189	0xbdaf1b7c	-0.08550164
190	0xbd3baa9d	-0.045817006
191	0xba5b735f	-0.00083713786
192	0x3d87215a	0.06598158
193	0xbd901896	-0.070359394
194	0x3ca555e9	0.020182567
195	0x3ddf7b26	0.109121606
196	0x3cd03e9c	0.02542048
197	0x3dde044b	0.108406626
198	0xbbab86db	-0.005234582
199	0x3d2615d6	0.040548168
200	0xbc97b0ea	-0.018516976
201	0xbc14ab40	-0.009074032
202	0xbd340b69	-0.043956194
203	0xbd60527e	-0.05476617
204	0x3d8a855a	0.06763716
205	0xbdb881a7	-0.09009104
206	0xbd6db51a	-0.05803404
207	0xbdcfa8a1	-0.10139585
208	0x3aedd2a2	0.0018144439
209	0x3dc7e784	0.09760955
210	0x3cfe0a06	0.031010639
211	0xbd7fd28b	-0.06245665
212	0x3c9571c7	0.01824273
213	0xbd0b16fd	-0.03395747
214	0xbdcf4fab	-0.10122617
215	0xbd899175	-0.06717197
216	0xbda02169	-0.078188725
217	0x3a3e05ce	0.000724879
218	0x3d9df791	0.07713235
219	0x3d94bf38	0.072630346
220	0x3d4d2feb	0.050094526
221	0x3d986d41	0.074427135
222	0xbbb7a3ef	-0.005604259
223	0x3c7013f0	0.014653191
224	0xbd88648e	-0.06659804
225	0xbcf01f5b	-0.029311826
226	0x3d9d9c49	0.07695825
227	0x3d971bc4	0.07378343
228	0x3ba68175	0.0050813504
229	0x3d4a2448	0.049351007
230	0xbdcef5ef	-0.10105502
231	0x3caad8a2	0.020855252
232	0xbc7e0691	-0.015504495
233	0x3d2d0223	0.042238366
234	0x3ddddd46	0.1083322
235	0xbcc4346c	-0.023950778
236	0xbe119b77	-0.14219461
237	0xbd72a45c	-0.059238777
238	0xbde2e66b	-0.11079105
239	0x3ccd3a8d	0.025052333
240	0xbcb546a6	-0.022128414
241	0x38b9da41	8.8621404e-05
242	0x3d9f44a7	0.07776766
243	0xbdc1c473	-0.09461298
244	0x3d0e5374	0.034747556
245	0xbd48f2c7	-0.049059656
246	0xbe00718d	-0.12543316
247	0xbc3014eb	-0.010747175
248	0x3d2d80c4	0.04235913
249	0xbccc4643	-0.024935847
250	0x3cb2e3f7	0.021837218
251	0xbdc4aa2a	-0.09602769
252	0x3d0f4e65	0.034986872
253	0x3d2b5642	0.04183031
254	0xbdb0c826	-0.08631925
255	0xbd8ad8f5	-0.067796625

conv.4.bias f4 [8]
0	0xbddf1949	-0.10893495
1	0x3c3517c2	0.011053028
2	0x3b1eb8a5	0.0024218943
3	0xbc1df76b	-0.009641509
4	0x3dbde7bb	0.09272715
5	0x3d7271bd	0.0591905
6	0x3b8da556	0.004322688
7	0x3d8da7f4	0.069168

conv.5.weight f4 [8]
0	0x3f73d2e5	0.95243675
1	0x3f6e16a2	0.93003285
2	0x3f818d3a	1.0121224
3	0x3f7e2bef	0.9928579
4	0x3f7a3b29	0.9774652
5	0x3f80a02f	1.0048884
6	0x3f8120f7	1.0088185
7	0x3f875538	1.0572882

conv.5.bias f4 [8]
0	0xbe1a3892	-0.15060642
1	0xbd9330ea	-0.07187064
2	0xbe08356c	-0.13301629
3	0xbd8437b6	-0.064559385
4	0xbde0c65a	-0.109753326
5	0xbd722730	-0.059119403
6	0xbdef6130	-0.11688459
7	0xbdb76654	-0.089550644

conv.5.running_mean f4 [8]
0	0xbe45fc81	-0.19334604
1	0x3e1622d7	0.14661728
2	0xbe552cdd	-0.20817895
3	0xbe109162	-0.14117959
4	0xbe928fbc	-0.28625286
5	0xbd205687	-0.03914502
6	0x3ec3ddba	0.382551
7	0x3d867655	0.06565539

conv.5.running_var f4 [8]
0	0x3e3ca7d4	0.18423396
1	0x3ec46dff	0.3836517
2	0x3e36a180	0.17835045
3	0x3df5e34b	0.12006243
4	0x3e640a07	0.2226945
5	0x3e1b66e9	0.15175976
6	0x3e2ec201	0.17066194
7	0x3e1ad4ec	0.15120286

linear.0.weight f4 [4, 3528]
0	0xbbcda9dc	-0.0062763523
1	0xbc98cb59	-0.018651651
2	0x3af175c8	0.0018421942
3	0xbb1f36c3	-0.0024294115
4	0x3d19ecef	0.037579473
5	0xbc0a7368	-0.008450367
6	0xbbab3f6b	-0.005226066
7	0x3c89544e	0.016763832
8	0x3d6290b5	0.055313785
9	0xbca21b92	-0.019788537
10	0x3c78b770	0.015180454
11	0xbb70645d	-0.0036680915
12	0xbc91db75	-0.01780484
13	0x3c86f7ce	0.016475584
14	0xbce6bde5	-0.02816672
15	0x38af6d3a	8.364995e-05
16	0xbcb938ea	-0.022610147
17	0xbd1d9e38	-0.038480967
18	0xbc8b09f2	-0.016972516
19	0xbc4598f1	-0.01206039
20	0xbcdba5ae	-0.0268124
21	0xbcc1ff59	-0.02368133
22	0xbd2c466b	-0.042059343
23	0xbc3e8378	-0.011628024
24	0xbbc5e647	-0.006039414
25	0x3d1366a9	0.035986576
26	0x3cdf03d2	0.027223501
27	0x3c29172f	0.010320469
28	0x3a9c4858	0.0011923416
29	0xbc17a16b	-0.009254794
30	0x3cca527b	0.024697533
31	0xbaa85457	-0.0012842518
32	0xbcb0ff22	-0.021606032
33	0xbd0e6dcf	-0.03477269
34	0xbbb06215	-0.005382786
35	0xbcaeb784	-0.021327741
36	0xbce87b54	-0.02837912
37	0xbbdcf074	-0.0067425314
38	0x3c837292	0.016045842
39	0xbd036ce2	-0.03208626
40	0xbc490245	-0.0122686075
41	0x3cb8324b	0.022484919
42	0x3c3b9a69	0.0114503885
43	0xbd306ded	-0.043073583
44	0x3c1457e8	0.009054162
45	0x3b68e60c	0.003553751
46	0x3be36509	0.0069395346
47	0xbc1fc5ee	-0.00975178
48	0x3c947cd6	0.018125933
49	0xba97c8c6	-0.0011580221
50	0xbca55b42	-0.020185117
51	0xba152e77	-0.0005690823
52	0xbbc48cdf	-0.0059982385
53	0xbc468443	-0.012116495
54	0xbca1aa7f	-0.01973462
55	0xbc8b42f6	-0.016999703
56	0xbaa3444e	-0.001245627
57	0xba1f7f8c	-0.00060843746
58	0xbbe87ac7	-0.0070947143
59	0x3cba03ef	0.022706954
60	0xbcfc16e9	-0.030772643
61	0x3c0c5f1c	0.008567598
62	0x3d017e64	0.031614676
63	0xbb588364	-0.00330373
64	0xbcacd70d	-0.021098638
65	0xbbf32dde	-0.0074212393
66	0x3c9bbcb3	0.019010877
67	0xbc777d1b	-0.015105511
68	0x3c2e6d02	0.010646107
69	0x39d55485	0.00040689498
70	0xbc5f01ef	-0.013611301
71	0x3c27d5d4	0.010243852
72	0xbc2643ec	-0.01014803
73	0x3a9d7d1f	0.0012015438
74	0x3b16e35f	0.0023023707
75	0x3c27c7c9	0.010240504
76	0x3cd2dd9a	0.025740433
77	0x37fd75a0	3.0214724e-05
78	0xbd1d7ae3	-0.038447272
79	0xbcd0013a	-0.02539121
80	0xbadc1cc2	-0.0016793238
81	0xbaf92d62	-0.0019010718
82	0x3ba2f8a2	0.004973487
83	0xba222f64	-0.00061868713
84	0xbc80f3bb	-0.01574122
85	0xbceba240	-0.02876389
86	0xbb8fe641	-0.004391462
87	0x3c9b28a0	0.01894027
88	0x3c64c0d5	0.01396199
89	0xbd185886	-0.037193798
90	0x3ba1cf07	0.0049380097
91	0xbcd28e85	-0.025702724
92	0x3d1a1852	0.03762085
93	0xbc26d383	-0.010182264
94	0xbc84d59d	-0.01621514
95	0xbd165849	-0.03670529
96	0xbd02cfa0	-0.031936288
97	0x3bb93d84	0.005653085
98	0x3c87aafd	0.016561026
99	0xbb09202a	-0.0020923712
100	0x3c6af5d2	0.014340835
101	0xbca3fc6d	-0.020017827
102	0x3c03b041	0.008037628
103	0xbc8f593b	-0.017498603
104	0x3ca6b789	0.020351188
105	0xbc81256c	-0.015764914
106	0xbc16391b	-0.009168888
107	0x3c4e7872	0.012601959
108	0xbbfbdf8d	-0.0076865614
109	0x3c602609	0.013680943
110	0xbd1ff796	-0.039054476
111	0xbc8b58a9	-0.01701005
112	0xbd10a0cb	-0.035309594
113	0xbc65a9f0	-0.014017567
114	0x3b80f123	0.0039349957
115	0xba4b914b	-0.0007765486
116	0xbcd13d96	-0.025542062
117	0xbc34c547	-0.011033363
118	0xbc85c3a3	-0.016328638
119	0xbb98dd5c	-0.00466506
120	0x3bcac1a7	0.006187636
121	0xbc6ebcfe	-0.014571426
122	0xbcad6fab	-0.021171411
123	0xbcbc0245	-0.022950301
124	0x3c6b92e7	0.014378286
125	0xbcd51710	-0.026011974
126	0x3ac0d842	0.0014712887
127	0x3c3e8d1e	0.011630325
128	0x3cbe193f	0.023205398
129	0x3c1c93c0	0.009556711
130	0xbb76e71f	-0.003767438
131	0xbcfb2d8e	-0.03066137
132	0x3ad00986	0.0015871979
133	0xbcb65da0	-0.02226144
134	0xbd53e367	-0.05173054
135	0xbcf94c45	-0.030431876
136	0x3c5035f5	0.012708177
137	0x3bf06161	0.007335827
138	0xbd4e0107	-0.05029395
139	0x3c53b827	0.012922323
140	0x3bec3baa	0.007209261
141	0x3cc68f5c	0.024238281
142	0x3c6da458	0.014504515
143	0x3c88ba35	0.016690353
144	0xbc73b8f4	-0.014875639
145	0xbcafe5ea	-0.021471936
146	0x3ca5f31f	0.02025753
147	0xbc24bba4	-0.010054503
148	0xbbded2ff	-0.006800055
149	0xbcda127e	-0.026620146
150	0x3c79343b	0.015210207
151	0x3ca6cf1e	0.020362433
152	0x3c8b1d8f	0.016981868
153	0x3ca13f4f	0.019683508
154	0xbd331494	-0.043720797
155	0xbcc6bf6b	-0.024261197
156	0xbd29089c	-0.041267976
157	0xbcb4baf6	-0.022061806
158	0x3c81fdb5	0.015868047
159	0x3d008fb3	0.031387042
160	0xbb8290c6	-0.0039845435
161	0xbc1d4e21	-0.009601147
162	0xbcb03d82	-0.021513704
163	0xba614e84	-0.00085947686
164	0xbbf205a6	-0.0073859273
165	0xbc3477ca	-0.011014888
166	0x3cb1649d	0.021654421
167	0xbc2992c1	-0.01034993
168	0x3cc0a547	0.02351631
169	0xbce89295	-0.028390208
170	0x3c8c6a8c	0.01714065
171	0xbc9f24b7	-0.019426687
172	0x3b3163b2	0.002706748
173	0xbca4a913	-0.020100152
174	0x3cffc780	0.031223059
175	0x3cf3abcd	0.029745007
176	0xbb4f8ff0	-0.0031671487
177	0xbc1e0fee	-0.009647353
178	0xbbe108dd	-0.0068675117
179	0x3b2c2eda	0.0026273043
180	0xb997ce18	-0.00028954516
181	0xb6794020	-3.7141217e-06
182	0xbbde2688	-0.0067794956
183	0xbbe1384e	-0.006873167
184	0x3d1ad68d	0.037802268
185	0xbbe5b6a5	-0.0070102983
186	0xbcee3aef	-0.029080836
187	0xba855ef0	-0.0010175388
188	0x3ccb4e38	0.024817571
189	0xb9d3a49c	-0.000403677
190	0xbced2ef3	-0.028953051
191	0xbd3f562f	-0.04671305
192	0x3c645199	0.01393547
193	0xbc9ae3a0	-0.018907368
194	0xbbfbd6e6	-0.00768553
195	0x3c7d5151	0.015461282
196	0xbc1580ac	-0.009124916
197	0x3ce4e12a	0.027939398
198	0x3bc0dabe	0.005885451
199	0x3c5bdd7f	0.013419508
200	0xbd30043a	-0.04297278
201	0x3b0f9b76	0.002191273
202	0x3bd3527e	0.006449043
203	0x3c96818e	0.018372323
204	0x3cb769f1	0.022389384
205	0x3c96ec85	0.018423328
206	0x3b5886cb	0.0033039327
207	0x3c8a4e31	0.016882988
208	0xbc84dbc9	-0.016218083
209	0x3c04399f	0.008070379
210	0xbcd56aa8	-0.026051834
211	0xbb2ba6ad	-0.0026191876
212	0xbccc38f4	-0.024929501
213	0xbc8e3fa1	-0.017364325
214	0x3ca61f42	0.020278577
215	0xbcebf582	-0.02880359
216	0xbcc095d4	-0.023508944
217	0x3c839a1b	0.016064694
218	0x3b8e78bd	0.004347889
219	0x3c23fa32	0.010008382
220	0xbbd3c8ce	-0.006463147
221	0xbc34b092	-0.011028426
222	0xbcfc0c46	-0.030767571
223	0xbb5ed8a6	-0.0034003644
224	0xbb8df224	-0.004331844
225	0xbc9bd1a2	-0.01902086
226	0xb92c8d16	-0.00016455757
227	0x3c21a5f8	0.00986623
228	0xbc5bdc02	-0.013419153
229	0x3b20c3f2	0.0024530855
230	0xbba1b75e	-0.004935189
231	0x3b948941	0.0045329635
232	0x3ab551aa	0.0013833542
233	0xbc6aa094	-0.014320511
234	0xbc910972	-0.0177047
235	0x3bb2501e	0.0054416796
236	0x3c9a681c	0.018848471
237	0xbab8505c	-0.0014062035
238	0xbbdb5595	-0.006693552
239	0xbcc49f82	-0.02400184
240	0xbb8e112e	-0.004335544
241	0x3bb93e4e	0.0056531793
242	0xbbff9796	-0.007800053
243	0xbc123c72	-0.008925544
244	0x3cce77d5	0.025203625
245	0xbd65fd6c	-0.056149885
246	0x3c5aa8bd	0.013345894
247	0xbc033857	-0.008009038
248	0x3b7f182f	0.0038924327
249	0xba14d038	-0.0005676779
250	0x3c211a52	0.009832935
251	0x3c4765d3	0.012170273
252	0xbc3aff89	-0.011413463
253	0x3bb7756b	0.005598714
254	0xbba15490	-0.0049234107
255	0xbc3f2769	-0.011667111

linear.0.bias f4 [4]
0	0xbc0bfc9c	-0.0085441135
1	0x3b6e8e88	0.0036400873
2	0x394e3982	0.00019667114
3	0xbc715377	-0.014729372
