imitation_learning/models/agent_softmax.pt (torch, 48096 bytes, 20 tensors)

conv.0.weight f4 [4, 1, 3, 3]
-0.17270532 0.012590102 0.0074021737 0.22432019 0.27738914 -0.28098166 -0.051742855 0.3231419
-0.23770998 -0.087331265 0.2073771 -0.14457752 -0.09610125 0.14414892 -0.034542657 0.06278194
0.014079849 -0.24597749 0.012100687 0.33028045 -0.05252441 0.038415372 -0.0483864 0.3315216
-0.021840595 0.17956562 -0.20010357 -0.19090483 0.25849175 -0.27115822 -0.010368706 0.1474724
-0.09125627 0.022571731 0.22234479 -0.05370043
00000000: aad9 30be b746 4e3c ef8d f23b 31b4 653e
00000010: f305 8e3e d4dc 8fbe 51f0 53bd db72 a53e
00000020: 3f6a 73be bcda b2bd aa5a 543e 210c 14be
00000030: bbd0 c4bd c69b 133e 9a7c 0dbd d193 803d
00000040: 2baf 663c 86e1 7bbe f641 463c 851a a93e
00000050: d623 57bd 7059 1d3d d130 46bd 33bd a93e
00000060: 0ceb b2bc 0de0 373e f3e7 4cbe 8e7c 43be
00000070: 0859 843e 40d5 8abe 81e1 29bc 0103 173e
00000080: 91e4 babd 5ae8 b83c 5aae 633e fbf4 5bbd

conv.0.bias f4 [4]
0.055146214 0.01503925 0.083474614 0.21985729
00000000: ffe0 613d 3067 763c bdf4 aa3d 4522 613e

conv.1.weight f4 [4]
0.98047674 0.95243937 0.98453456 1.0483284
00000000: 8600 7b3f 11d3 733f 750a 7c3f a02f 863f

conv.1.bias f4 [4]
0.013406279 -0.05529712 0.0038646187 -0.054016907
00000000: 02a6 5b3c 3c7f 62bd 8b45 7d3b d540 5dbd

conv.1.running_mean f4 [4]
12.548597 -27.188467 81.27994 1.0777146
00000000: 0ec7 4841 fb81 d9c1 548f a242 8df2 893f

conv.1.running_var f4 [4]
139.49768 164.31288 1090.8718 86.744965
00000000: 687f 0b43 1950 2443 e65b 8844 6c7d ad42

conv.4.weight f4 [8, 4, 5, 5]
-0.0584537 0.005165304 -0.07894441 -0.15250291 -0.088336416 -0.08280175 0.023740219 0.042811226
-0.017431896 0.018795215 -0.041464828 -0.060660567 0.010969163 0.019316247 -0.0040174923 -0.10081429
-0.05852224 0.1298652 -0.017750025 0.019897018 0.007018218 0.07483563 0.03467971 -0.06640838
-0.08961194 -0.03448711 -0.019342097 0.058541834 0.06691372 -0.012688534 -0.031207519 0.05076085
-0.110533975 0.02957367 -0.010886719 -0.061229035 -0.044499964 0.011086344 -0.11570156 -0.072220825
-0.043955613 -0.05921736 0.08332351 -0.023703167 0.04351882 0.05219646 -0.095550455 -0.051708236
-0.013566517 -0.028595518 -0.13418177 -0.08095464 0.013535059 -0.12197717 -0.059172787 -0.13705376
-0.12677549 0.0022158406 -0.0032025536 -0.0244294 -0.121910036 0.015496687 0.07597736 -0.051157624
-0.057016198 -0.06892671 -0.05789038 0.040586174 0.027268123 -0.081053026 -0.07724795 -0.090534054
0.09046144 0.10187016 -0.03849392 -0.037569318 0.0007706862 0.10615747 -0.145425 -0.008258078
-0.041085243 -0.052676864 0.10723849 0.04582333 0.11637284 0.010540932 0.012930386 -0.04566797
-0.036196977 0.09361388 -0.0085406415 -0.07483762 0.04185506 -0.058998387 -0.0012806463 -0.0049342285
0.0028447807 0.0945704 -0.076325394 -0.08882692 0.057191238 -0.033076406 -0.08457794 -0.005959425
-0.041510724 -0.017146839 -0.04703823 -0.02370204 -0.009199037 0.10366321 -0.019064449 -0.09031163
0.06494052 -0.05491085 -0.057646625 0.030721836 -0.14692977 0.028422933 0.11703345 -0.08353065
0.004690203 -0.13350597 -0.026693542 0.06471128 0.017760599 0.015642168 -0.10361245 0.003376357
0.055280294 -0.12035978 -0.021637851 -0.0019792907 0.050643872 -0.023665475 -0.045541808 0.014715803
0.037506934 -0.053324364 -0.1071066 0.11575858 0.09879293 0.0024830787 -0.06212793 0.07374521
0.014384883 0.014006776 0.007992735 -0.10156395 0.106024384 -0.12661353 0.027760195 0.06857733
-0.09381169 -0.04076436 -0.045635276 0.09344871 0.011527554 -0.04901342 -0.033856235 0.08443631
-0.040287673 0.102900684 0.049403388 -0.018320566 -0.003868156 0.035611387 0.051058713 -0.026643606
0.014669417 -0.020184634 -0.09864899 -0.10851135 0.036005426 -0.050960194 0.0367568 0.003042246
-0.06989926 -0.047916725 0.040312644 -0.11888673 -0.02855997 -0.004070562 -0.0076545915 0.023607539
-0.025801158 -0.044470437 0.10232648 -0.06683487 -0.07123793 -0.08806844 0.06136738 -0.06707004
0.04332501 0.105166756 0.01864448 -0.021521129 -0.077734254 -0.049474083 0.2081368 -0.0071253176
0.035155084 -0.010496205 -0.044490352 0.012729432 -0.04209703 0.03887314 -0.04226709 0.031000875
0.07088075 0.019067666 0.005068082 -0.061856676 0.026039694 0.049272485 0.13184233 0.061488215
-0.0216081 0.04275673 -0.056614105 -0.055370763 0.06642478 -0.084466875 0.040849995 0.15690954
0.005625435 -0.0048264423 0.026627792 -0.073538646 0.01856885 -0.05872215 0.07278317 -0.15185733
-0.09562388 0.010584651 -0.09946984 -0.061281413 0.040578693 0.054163452 0.006500075 -0.028181542
-0.08034564 0.03246149 -0.021670585 0.008959449 0.033205636 0.084832065 -0.12863752 0.0102578215
0.02547099 0.041211333 0.08375311 -0.051995214 -0.05584024 0.05737315 0.032878827 0.0681453
00000000: 266d 6fbd b641 a93b 9bad a1bd b929 1cbe
00000010: b9e9 b4bd f793 a9bd d97a c23c d35a 2f3d
00000020: 56cd 8ebc 6cf8 993c 06d7 29bd 3777 78bd
00000030: 01b8 333c 1b3d 9e3c 2ba5 83bb b977 cebd
00000040: 04b5 6fbd 62fb 043e 8068 91bc 12ff a23c
00000050: 14f9 e53b 6c43 993d 500c 0e3d 1e01 88bd
00000060: 7786 b7bd 5b42 0dbd 5173 9ebc 90c9 6f3d
00000070: 0f0a 893d 92e3 4fbc e9a6 ffbc 9cea 4f3d
00000080: a35f e2bd 7b44 f23c 365e 32bc 4ccb 7abd
00000090: 9845 36bd 7fa3 353c f1f4 ecbd 83e8 93bd
000000a0: cd0a 34bd e78d 72bd 84a5 aa3d 252d c2bc
000000b0: ca40 323d f5cb 553d f5af c3bd 04cc 53bd
000000c0: 1946 5ebc 2641 eabc f266 09be 8ccb a5bd
000000d0: 27c2 5d3c 2bcf f9bd 2a5f 72bd d257 0cbe
000000e0: 6fd1 01be a337 113b efe1 51bb 2a20 c8bc
000000f0: f8ab f9bd d1e5 7d3c 059a 9b3d a88a 51bd
00000100: d189 69bd 7229 8dbd 771e 6dbd b03d 263d
00000110: 6661 df3c 21ff a5bd 2c34 9ebd eb69 b9bd
00000120: d943 b93d 4da1 d03d cdab 1dbd 49e2 19bd
00000130: e007 4a3a 1669 d93d 4bea 14be e44c 07bc
00000140: 0049 28bd b2c3 57bd da9f db3d 3eb1 3b3d
00000150: e254 ee3d e0b3 2c3c f8d9 533c 560e 3bbd
00000160: 4843 14bd a2b8 bf3d 0cee 0bbc 7744 99bd
00000170: 3670 2b3d 4ba8 71bd 5cdb a7ba 4faf a1bb
00000180: 806f 3a3b 20ae c13d 7d50 9cbd e3ea b5bd
00000190: 5c41 6a3d 207b 07bd 3337 adbd 4847 c3bb
000001a0: 2607 2abd 8777 8cbc 29ab 40bd c82a c2bc
000001b0: 8fb7 16bc 614d d43d 0c2d 9cbc 4ef5 b8bd
000001c0: 89ff 843d 33ea 60bd de1e 6cbd 5cac fb3c
000001d0: c274 16be 36d7 e83c 3caf ef3d 1e12 abbd
000001e0: 46b0 993b cab5 08be 6aac dabc 5987 843d
000001f0: ad7e 913c 0124 803c c432 d4bd df45 5d3b
00000200: 976d 623d 307f f6bd dd41 b1bc fdb6 01bb
00000210: f36f 4f3d 19de c1bc 0c8a 3abd 8d1a 713c
00000220: dfa0 193d a66a 5abd b55a dbbd d612 ed3d
00000230: f353 ca3d 26bb 223b db79 7ebd bb07 973d
00000240: 93ae 6b3c ad7c 653c f6f3 023c c300 d0bd
00000250: 5023 d93d faa6 01be 5969 e33c 4572 8c3d
00000260: 5820 c0bd 88f8 26bd 0eec 3abd 0a62 bf3d
00000270: 11de 3c3c 4cc2 48bd d6ac 0abd f2ec ac3d
00000280: b004 25bd 98bd d23d 355b 4a3d 0315 96bc
00000290: e480 7dbb 3fdd 113d f122 513d b143 dabc
000002a0: ff57 703c 3f5a a5bc 7b08 cabd 333b debd
000002b0: 6d7a 133d a3bb 50bd 4c8e 163d 6b60 473b
000002c0: 5827 8fbd 5444 44bd df1e 253d e37a f3bd
000002d0: 99f6 e9bc 5962 85bb 5ed3 fabb 9964 c13c
000002e0: f35c d3bc a226 36bd 8c90 d13d b8e0 88bd
000002f0: 31e5 91bd 3a5d b4bd 5d5c 7b3d 045c 89bd
00000300: 9175 313d ab61 d73d 4fbc 983c 144d b0bc
00000310: 2333 9fbd 56a5 4abd d021 553e 7f7b e9bb
00000320: c7fe 0f3d 46f8 2bbc 843b 36bd 1c8f 503c
00000330: ef6d 2cbd 7139 1f3d 4220 2dbd 8cf5 fd3c
00000340: ed29 913d cb33 9c3c 2712 a63b 6d5d 7dbd
00000350: 3251 d53c f2d1 493d ad01 073e 11db 7b3d
00000360: 7803 b1bc ae21 2f3d 31e4 67bd 74cc 62bd
00000370: b709 883d f8fc acbd 5352 273d e5ac 203e
00000380: 9255 b83b 2227 9ebb 8722 da3c 6e9b 96bd
00000390: b31d 983c a386 70bd 580f 953d 7d80 1bbe
000003a0: 74d6 c3bd 3e6b 2d3c d8b6 cbbd 3802 7bbd
000003b0: d835 263d 7fda 5d3d 95fe d43b fadc e6bc
000003c0: 418c a4bd 57f6 043d 8386 b1bc a7ca 123c
000003d0: a202 083d 6fbc ad3d 8eb9 03be 6c10 283c
000003e0: 8aa8 d03c 37cd 283d c086 ab3d eff8 54bd
000003f0: bcb8 64bd 1c00 6b3d f3ab 063d c38f 8b3d

conv.4.bias f4 [8]
-0.03856917 -0.0776487 -0.0046674227 -0.036788687 0.044210907 -0.030027017 0.05090304 -0.0052877273
00000000: b5fa 1dbd 4806 9fbd 2ef1 98bb bcaf 16bd
00000010: 7f16 353d 38fb f5bc b57f 503d ac44 adbb

conv.5.weight f4 [8]
1.0059056 1.1311532 0.9541948 1.0169834 0.9509132 0.9549301 0.911522 1.0105647
00000000: 84c1 803f a1c9 903f 1c46 743f 832c 823f
00000010: 0c6f 733f 4d76 743f 8159 693f 2f5a 813f

conv.5.bias f4 [8]
0.022806093 -0.044000305 -0.065722816 -0.11673748 -0.01110804 -0.051563412 -0.08778636 -0.07035295
00000000: d8d3 ba3c aa39 34bd af99 86bd 0f14 efbd
00000010: 7ffe 35bc 2834 53bd 56c9 b3bd 3515 90bd

conv.5.running_mean f4 [8]
-0.89171106 -0.3232614 0.15538657 -0.35301462 -0.6221475 -0.7321706 -0.16641556 -0.02334316
00000000: 2d47 64bf 8582 a5be a81d 1f3e 55be b4be
00000010: 0f45 1fbf 886f 3bbf d768 2abe 283a bfbc

conv.5.running_var f4 [8]
0.40718496 0.3396275 0.2625998 0.25686944 0.5347035 0.41823542 0.7014755 0.29304686
00000000: 8c7a d03e a8e3 ad3e 7b73 863e 6484 833e
00000010: 54e2 083f f422 d63e e693 333f 3d0a 963e

conv.8.weight f4 [16, 8, 7, 7]
-0.0075213676 -0.023763264 -0.071448565 -0.06923341 0.00886689 0.011864045 0.023199704 -0.040711958
-0.06532007 -0.056588102 0.0006388615 -0.03831723 -0.039037544 0.044855185 -0.036421668 -0.013106511
-0.047350224 -0.014909649 -0.06510053 -0.06844302 0.0006243082 -0.044674926 -0.042924084 -0.044488203
-0.033891123 -0.059756197 -0.02550118 0.0071054357 -0.036808275 -0.034605406 0.0373387 -0.037238546
-0.0184174 -0.069984324 -0.040343024 0.010032709 -0.05466476 -0.023246817 0.0028047885 -0.039422464
-0.018386133 0.06112813 -0.00899722 -0.060496747 -0.052416086 -0.062208094 -0.028937487 -0.03129343
-0.047657795 0.041029207 -0.06525614 0.0068542995 -0.043640744 0.0026620438 -0.009258505 -0.020464951
-0.053391464 -0.02631606 -0.042952664 -0.094513245 0.005410277 0.021976124 0.01902593 -0.05331365
0.015992839 -0.07290211 -0.068402916 -0.017280878 -0.06581587 0.0431241 -0.04449868 0.044436757
-0.061415173 -0.056081157 -0.027665917 -0.034802727 -0.009572007 -0.023607934 0.059664283 -0.025891691
-0.082315534 -0.0024912239 -0.04000783 -0.030090775 -0.03620811 0.060217723 0.03939035 -0.037437506
-0.028817264 -0.03941678 -0.0035969664 -0.021744063 0.010860781 -0.022929741 0.008182945 -0.048072655
0.03368181 -0.051046338 -0.020675326 0.012064473 -0.05007668 -0.038777143 -0.012235239 0.031234244
-0.0112221 -0.0011500516 0.022096163 0.016519085 -0.057604115 -0.03781489 0.0042021424 -0.002873012
-0.040727764 0.007385448 -0.025695378 -0.07296896 -0.008659691 -0.05850537 -0.07492637 -0.08445729
0.049793527 0.025004555 -0.056163017 0.012275599 -0.006900551 -0.061956856 0.013523572 -0.033667747
-0.048146173 -0.063268416 -0.008561884 -0.023835495 -0.04942998 -0.04740534 -0.025773697 0.011098458
0.016149128 0.01648621 0.030484734 -0.017924063 -0.017471932 -0.038068086 0.04611342 0.05451264
0.013475472 -0.016287401 0.058908153 0.0148033565 -0.07704961 -0.053653486 -0.06596278 0.008913048
-0.052704368 -0.024734484 -0.042313494 -0.07874426 -0.041522462 -0.07288129 0.017747516 0.017559145
0.02195041 -0.045062143 -0.030498592 -0.031375967 0.017738746 -0.038061444 0.03413015 -0.040493473
-0.020634715 -0.02418058 -0.050073072 -0.0030007453 -0.06493589 0.006206949 -0.030351914 -0.06124275
-0.054577477 -0.03690351 0.015318028 -0.04722765 -0.056737933 -0.0071901428 0.020133018 0.028245127
-0.039032474 0.010922469 0.017587762 -0.03943041 0.03766661 0.029636737 -0.04789665 -0.0574797
0.03430364 0.05457126 0.039100733 -0.006292952 -0.032338936 -0.028595213 0.018823735 -0.02887524
0.020248843 0.013627211 0.03967184 0.01467093 0.0119868135 -0.01324932 -0.0470718 0.01683143
-0.026496347 0.006833413 0.05527582 -0.033665158 0.023922578 0.03554916 0.016039634 -0.028684177
0.016138826 -0.02608383 -0.026712904 0.05242632 0.042409 0.010483816 -0.02377114 -0.01768635
0.022471987 0.011959045 0.11746605 0.00084353774 0.015619414 0.009112401 -0.0685949 -0.026683573
0.00470373 0.035674658 0.027515564 0.027596712 0.027898302 -0.06742783 -0.000314125 -0.016958956
0.052822247 -0.013887246 -0.013836275 0.02389876 -0.027010795 -0.04956997 -0.02497213 -0.0688933
-0.042101406 -0.01839559 -0.03549866 -0.029936306 -0.0578647 -0.053485513 -0.0015959021 0.012609735
00000000: ce75 f6bb 2dab c2bc a053 92bd 3fca 8dbd
00000010: 6f46 113c 6961 423c 4e0d be3c 95c1 26bd
00000020: 87c6 85bd edc8 67bd 4579 273a 87f2 1cbd
00000030: d5e5 1fbd 12ba 373d e32e 15bd b1bc 56bc
00000040: 4ff2 41bd 9a47 74bc 6d53 85bd db2b 8cbd
00000050: 9da8 233a 0efd 36bd 2ad1 2fbd 4339 36bd
00000060: 6bd1 0abd eac2 74bd dae7 d0bc b7d4 e83b
00000070: 46c4 16bd 66be 0dbd 77f0 183d 7287 18bd
00000080: 16e0 96bc f153 8fbd ba3e 25bd 3b60 243c
00000090: 28e8 5fbd 1c70 bebc 8bd0 373b 7379 21bd
000000a0: 849e 96bc 7d61 7a3d 1369 13bc 70cb 77bd
000000b0: 40b2 56bd eacd 7ebd 4f0e edbc 8a2d 00bd
000000c0: d234 43bd 3e0e 283d 03a5 85bd 089a e03b
000000d0: a3c0 32bd af75 2e3b fcb0 17bc 1da6 a7bc
000000e0: 02b1 5abd c794 d7bc 22ef 2fbd 2990 c1bd
000000f0: b148 b13b 4607 b43c 44dc 9b3c 6a5f 5abd
00000100: 6a03 833c b44d 95bd d416 8cbd a190 8dbc
00000110: 79ca 86bd e5a2 303d 3f44 36bd 5103 363d
00000120: 7a8e 7bbd 5bb5 65bd a2a3 e2bc 4e8d 0ebd
00000130: e8d3 1cbc 6d65 c1bc 8962 743d d01a d4bc
00000140: 0c95 a8bd cd43 23bb 40df 23bd ee80 f6bc
00000150: f54e 14bd dca6 763d c757 213d 1258 19bd
00000160: 2f12 ecbc 7d73 21bd 15bb 6bbb 9b20 b2bc
00000170: 6bf1 313c 27d7 bbbc c211 063c d5e7 44bd
00000180: f0f5 093d f715 51bd 4d5f a9bc 11aa 453c
00000190: 341d 4dbd c8d4 1ebd 5076 48bc f5de ff3c
000001a0: e6dc 37bc 54bd 96ba 0303 b53c 0853 873c
000001b0: 4bf2 6bbd c9e3 1abd 20b2 893b 2549 3cbb
000001c0: 28d2 26bd a101 f23b 1d7f d2bc c070 95bd
000001d0: 60e1 0dbc 54a3 6fbd ff72 99bd f2f7 acbd
000001e0: 4cf4 4b3d 5ad6 cc3c 310b 66bd 981f 493c
000001f0: 041e e2bb 79c6 7dbd f991 5d3c 31e7 09bd
00000200: ec34 45bd df92 81bd 2547 0cbc a842 c3bc
00000210: 1777 4abd 1a2c 42bd 5c23 d3bc 4fd6 353c
00000220: 2d4b 843c 170e 873c 1fbb f93c 7cd5 92bc
00000230: 4c21 8fbc 48ed 1bbd 6de1 3c3d a548 5f3d
00000240: 3ac8 5c3c 286d 85bc ad49 713d c789 723c
00000250: 30cc 9dbd c2c3 5bbd 7e17 87bd 0808 123c
00000260: 89e0 57bd f99f cabc ea50 2dbd ac44 a1bd
00000270: 7513 2abd c942 95bd 3d63 913c 32d8 8f3c
00000280: 59d1 b33c 1593 38bd 2fd8 f9bc 1684 00bd
00000290: d950 913c 51e6 1bbd 0ecc 0b3d 7cdc 25bd
000002a0: 220a a9bc 5a16 c6bc 6c19 4dbd 27a8 44bb
000002b0: 1cfd 84bd a963 cb3b 94a4 f8bc aed9 7abd
000002c0: a28c 5fbd 2328 17bd 77f8 7a3c c871 41bd
000002d0: 0966 68bd 4a9b ebbb 00ee a43c 5362 e73c
000002e0: 84e0 1fbd 28f4 323c 3614 903c c881 21bd
000002f0: 4e48 1a3d bec8 f23c 472f 44bd d56f 6bbd
00000300: f981 0c3d 1d86 5f3d 1728 203d 1c35 cebb
00000310: d575 04bd 8240 eabc 3c34 9a3c c48b ecbc
00000320: e7e0 a53c aa44 5f3c f07e 223d 575e 703c
00000330: 5764 443c ad13 59bc 5cce 40bd 11e2 893c
00000340: de0e d9bc d3ea df3b e668 623d 7ae4 09bd
00000350: 48f9 c33c ff9b 113d 8d65 833c 14fb eabc
00000360: 9235 843c c2ad d5bc 05d5 dabc fbbc 563d
00000370: 0fb5 2d3d 50c4 2b3c b2bb c2bc f7e2 90bc
00000380: 2c17 b83c dfef 433c 0a92 f03d dc20 5d3a
00000390: 92e8 7f3c 2e4c 153c 7c7b 8cbd 8297 dabc
000003a0: bf21 9a3b 971f 123d 5268 e13c 8012 e23c
000003b0: fb8a e43c 9a17 8abd 25b1 a4b9 82ed 8abc
000003c0: 245c 583d 5587 63bc 8bb1 62bc 55c7 c33c
000003d0: be45 ddbc e209 4bbd 5a92 ccbc ee17 8dbd
000003e0: 8672 2cbd 59b2 96bc 0b67 11bd fc3c f5bc
000003f0: 8903 6dbd a013 5bbd 972d d1ba 1099 4e3c

conv.8.bias f4 [16]
0.0060784123 0.0032772918 -0.025971893 0.01825921 0.003031243 0.046605684 0.03253248 -0.03376721
0.017576503 -0.041883826 -0.015603665 -0.0070303073 0.04940966 0.018607128 -0.0149623 0.010980783
00000000: 6b2d c73b d5c7 563b 02c3 d4bc 5794 953c
00000010: d2a7 463b 9ae5 3e3d c740 053d 7c4f 0abd
00000020: 99fc 8f3c 608e 2bbd 84a6 7fbc 7e5e e6bb
00000030: c961 4a3d fa6d 983c 6f24 75bc bee8 333c

conv.9.weight f4 [16]
0.98865885 0.9454796 1.0425879 0.9684761 1.0977246 1.0026873 1.0238868 1.0310689
1.0419793 1.0794296 1.0780334 0.9865622 1.1753523 1.1722851 1.0804173 1.0272243
00000000: bf18 7d3f f30a 723f 8573 853f 0dee 773f
00000010: 3d82 8c3f 0f58 803f b90e 833f 11fa 833f
00000020: 945f 853f c02a 8a3f 00fd 893f 578f 7c3f
00000030: f271 963f 700d 963f 1d4b 8a3f 167c 833f

conv.9.bias f4 [16]
-0.023170939 -0.08464515 0.019809503 -0.0396157 -0.030024923 -0.040951088 0.003248625 -0.030486204
-0.08122252 -0.03836159 -0.06713411 -0.030916633 0.002188684 -0.030226234 -0.043873157 -0.057777077
00000000: fbd0 bdbc 705a adbd 8a47 a23c 1244 22bd
00000010: d4f6 f5bc 54bc 27bd e2e6 543b 34be f9bc
00000020: fe57 a6bd 0b21 1dbd 9c7d 89bd e144 fdbc
00000030: 0670 0f3b 029d f7bc 57b4 33bd a8a7 6cbd

conv.9.running_mean f4 [16]
-2.420441 -1.7335309 -0.23650604 -0.54613674 -0.2852485 -0.06893287 -0.30818594 -0.38463402
0.039605517 -0.24064103 0.0014352846 -0.3387382 0.11276849 0.5276296 0.016757052 -0.6893793
00000000: 81e8 1ac0 57e4 ddbf a42e 72be 9ecf 0bbf
00000010: 170c 92be ad2c 8dbd 8cca 9dbe c0ee c4be
00000020: 6539 223d 9a6a 76be 2920 bc3a 186f adbe
00000030: 2bf3 e63d bc12 073f 1646 893c 297b 30bf

conv.9.running_var f4 [16]
2.3712876 1.5595292 0.8669876 2.0261457 0.6058211 2.2057664 1.0635464 1.5088764
0.6103143 0.74930763 0.42248696 2.3721325 0.48231357 0.67404956 0.4903385 1.0870259
00000000: 2dc3 1740 a79e c73f e6f2 5d3f 5fac 0140
00000010: 1717 1b3f 472b 0d40 4a22 883f dd22 c13f
00000020: 8f3d 1c3f a0d2 3f3f 3650 d83e 05d1 1740
00000030: cef1 f63e 838e 2c3f a60d fb3e aa23 8b3f

linear.0.weight f4 [4, 784]
-0.0091733225 0.0071830666 -0.02959732 -0.006032547 -0.039874617 -0.00067626 -0.009275904 0.04691826
0.045713477 -0.025060967 -0.044093207 -0.026640832 -0.0146071855 0.04036766 0.027478782 0.023444027
-0.03556193 -0.019447718 -0.0004465319 0.005759434 -0.011493733 -0.016697837 0.04266428 -0.011855061
-0.03938058 -0.033442914 0.0018663062 0.019962924 0.025438327 0.016946394 0.013332673 -0.04379524
-0.03790186 -0.023069587 0.032289144 0.04608909 -0.016992304 0.024943179 -0.017888386 -0.04997591
-0.009335461 0.024579268 0.06477175 0.03231862 0.03805746 -0.047390934 -0.0012971142 0.0775664
-0.018209793 0.037497967 0.035738286 -0.019029098 -0.03312846 -0.0018426433 -0.04406194 -0.016744884
0.035224415 0.05080016 0.038702466 -0.010622477 -0.010962305 -0.004579425 -0.022021439 0.043783102
-0.018434618 -0.01796694 0.0136213405 -0.03147273 -0.00541813 -0.020915378 0.0010170502 0.02764684
0.0017776617 0.038694143 0.008143284 -0.02587373 0.0045893365 0.06488396 0.01879171 0.0112520475
-0.0061515 0.014714532 0.021641 -0.010005272 0.056306794 0.008402514 0.0028208648 0.017563324
-0.009819137 -0.01595426 0.009182551 0.020974338 -0.04931792 0.0067806276 -0.017911045 -0.0014950557
0.014161178 0.029183246 -0.005103919 0.057478268 0.044033382 -0.029893372 -0.012674171 0.0351839
0.02915852 -0.013659741 0.04523631 0.03939543 0.03193444 0.019211523 0.041018467 0.040241092
0.0005294109 -0.011908822 0.0020900923 0.091732234 0.023128528 0.021730686 0.01436202 0.03195544
0.07256943 0.0008122185 0.047712505 0.0009577746 -0.018420944 -0.008373116 -0.015136082 0.07153079
0.011778607 0.0027045654 0.013081571 -0.034395132 -0.0035772468 -0.02151734 0.026611133 -0.02618452
0.009376818 0.03455328 0.0035856077 -0.03309284 0.009938256 0.0048259315 0.024584651 -0.011246057
0.023777427 -0.056063727 -0.062163197 0.0395498 0.055891287 -0.011897717 0.047928423 0.036976594
0.02822124 0.0682149 0.0059742914 -0.0020821444 0.019649802 -0.009880291 -0.013566472 0.0035197462
0.052425846 -0.010164246 -0.01491127 0.03985383 0.029284203 0.017688831 -0.0026274316 0.038549773
0.01433651 0.004210898 0.011675937 0.027339581 0.00019144156 0.01600922 0.034458928 0.025242744
-0.03663446 -0.019758211 0.025661677 0.053188365 0.028064474 0.04239698 -0.0176928 -0.014573955
0.038064647 0.009290565 0.017424595 -0.017310504 -0.003442771 -0.01025525 0.042663876 -0.049006876
-0.03297444 0.021542013 0.017360609 0.027903339 0.03825227 -0.04240129 0.024744987 0.038627587
0.09944586 -0.0006505854 -0.03257053 0.018787237 -0.043423396 -0.026309492 0.037378468 0.023631511
-0.009909507 0.017342934 0.07583127 0.016236987 0.044594366 -0.0062572146 0.063282736 -0.026974
0.031000113 0.050022457 -0.039387796 0.010776718 0.031248957 0.052711032 -0.00019978148 0.046833992
-0.017700437 0.030346282 0.045135327 0.087301485 0.0033838311 -0.027452458 -0.040125486 0.0026399796
0.03215814 0.01676951 0.036447253 0.014480677 0.026123155 -0.04123714 0.01986623 -0.007464002
-0.09811602 -0.08277296 0.023470685 0.07893066 0.07620589 0.02317255 0.03924568 0.041880935
0.036880888 0.031045066 -0.02731532 0.028082587 -0.032136347 0.008465813 0.02324626 0.038760796
00000000: b44b 16bc ee5f eb3b 1476 f2bc acac c5bb
00000010: 9153 23bd 0a47 31ba f6f9 17bc 5d2d 403d
00000020: 0e3e 3b3d a84c cdbc 149b 34bd e03d dabc
00000030: fa52 6fbc 8f58 253d 2f1b e13c b00d c03c
00000040: 63a9 11bd d250 9fbc 7f1c eab9 a2b9 bc3b
00000050: 3650 3cbc e7c9 88bc bdc0 2e3d bb3b 42bc
00000060: 884d 21bd 70fb 08bd d89e f43a 4989 a33c
00000070: 0a64 d03c 2ad3 8a3c 4971 5a3c a362 33bd
00000080: fb3e 1bbd 6efc bcbc 9f41 043d eac7 3c3d
00000090: 7233 8bbc a355 cc3c aa8a 92bc 8ab3 4cbd
000000a0: c3f3 18bc 765a c93c 0da7 843d 8760 043d
000000b0: 24e2 1b3d ff1c 42bd ee03 aaba 22db 9e3d
000000c0: b42c 95bc 7897 193d 4f62 123d e9e2 9bbc
000000d0: b5b1 07bd d984 f1ba 4b7a 34bd 912c 89bc
000000e0: 7a47 103d d413 503d 7a86 1e3d e609 2ebc
000000f0: 3d9b 33bc 000f 96bb 4e66 b4bc e955 333d
00000100: 3204 97bc 672f 93bc 0b2c 5f3c 8de9 00bd
00000110: 928a b1bb ba56 abbc 8b4e 853a a07b e23c
00000120: 6e00 e93a c07d 1e3d 696b 053c 25f5 d3bc
00000130: 2562 963b e2e1 843d 12f1 993c 825a 383c
00000140: 8692 c9bb 3815 713c 7748 b13c 27ed 23bc
00000150: f4a1 663d b3aa 093c 42de 383b f6e0 8f3c
00000160: 72e0 20bc 82b2 82bc 6972 163c 60d2 ab3c
00000170: 9601 4abd 0730 de3b 2fba 92bc bff5 c3ba
00000180: 4904 683c b411 ef3c c73e a7bb 556e 6b3d
00000190: 595c 343d f2e2 f4bc 53a7 4fbc fe1c 103d
000001a0: d9dd ee3c 1bcd 5fbc b649 393d 1a5d 213d
000001b0: b0cd 023d 7c61 9d3c fb02 283d d8d3 243d
000001c0: 2ac8 0a3a 381d 43bc eef9 083b 1cde bb3d
000001d0: 0a78 bd3c 8d04 b23c ae4e 6b3c b5e3 023d
000001e0: 489f 943d 10eb 543a 306e 433d 2a13 7b3a
000001f0: 85e7 96bc 652f 09bc 54fd 77bc bc7e 923d
00000200: 0ffb 403c 143f 313b 1654 563c e9e1 0cbd
00000210: 3e70 6abb 2245 b0bc 97ff d93c eb80 d6bc
00000220: 3aa1 193c bd87 0d3d 84fc 6a3b 5c8c 07bd
00000230: 11d4 223c d922 9e3b c065 c93c 6241 38bc
00000240: e1c8 c23c 14a3 65bd d69e 7ebd f9fe 213d
00000250: 43ee 643d a4ee 42bc 9850 443d c574 173d
00000260: 3b30 e73c 41b4 8b3d fdc3 c33b 9674 08bb
00000270: 9ff8 a03c f2e0 21bc e845 5ebc 8bab 663b
00000280: 7cbc 563d f087 26bc 664e 74bc c53d 233d
00000290: 6de5 ef3c 2be8 903c fd30 2cbb 5ee6 1d3d
000002a0: aee3 6a3c 93fb 893b 6e4c 3f3c 42f7 df3c
000002b0: b4bd 4839 c525 833c ce24 0d3d dfc9 ce3c
000002c0: 040e 16bd f9db a1bc 7038 d23c 0bdc 593d
000002d0: 78e7 e53c 75a8 2d3d 7ef0 90bc 99c7 6ebc
000002e0: ade9 1b3d 7437 183c 06be 8e3c c2ce 8dbc
000002f0: 1da0 61bb a305 28bc 51c0 2e3d 6fbb 48bd
00000300: 3510 07bd e078 b03c d637 8e3c 8b95 e43c
00000310: 6aae 1c3d faac 2dbd 00b6 ca3c f637 1e3d
00000320: 45aa cb3d 0c8c 2aba ad68 05bd b1e7 993c
00000330: bbdc 31bd 0187 d7bc 2a1a 193d df96 c13c
00000340: 7c5b 22bc c512 8e3c 6d4d 9b3d 6e03 853c
00000350: 95a8 363d 5209 cdbb 619a 813d 94f8 dcbc
00000360: f3f3 fd3c 59e4 4c3d 1955 21bd d590 303c
00000370: d0fd ff3c 86e7 573d 6f7c 51b9 00d5 3f3d
00000380: 8200 91bc c498 f83c d2df 383d 1fcb b23d
00000390: 44c3 5d3b fae3 e0bc 9f5a 24bd 8203 2d3b
000003a0: 41b8 033d 3660 893c b749 153d 5d40 6d3c
000003b0: 3a00 d63c 46e8 28bd 81be a23c 9694 f4bb
000003c0: 0df1 c8bd df84 a9bd 9845 c03c 66a6 a13d
000003d0: d511 9c3d 5cd4 bd3c 14c0 203d 588b 2b3d
000003e0: 6a10 173d 3952 fe3c 61c4 dfbc 740d e63c
000003f0: 67a1 03bd 31b4 0a3c f16e be3c a4c3 1e3d

linear.0.bias f4 [4]
-0.018839957 0.023743425 -0.032489195 -0.047156677
00000000: 4156 9abc 9281 c23c 6413 05bd 5c27 41bd
