imitation_learning/models/agent_no_softmax.pt (torch, 48096 bytes, 20 tensors)

conv.0.weight f4 [4, 1, 3, 3]
000000 14 ff ba 3d 3f 20 27 be 48 95 a7 be a0 59 91 bd
       0.091306835 -0.16320895 -0.3273108 -0.07097173
000010 31 de 85 3e 01 bf b2 3e ae 40 88 bc 34 bf 7c be
       0.2614608 0.3491135 -0.016632404 -0.24682313
000020 db c5 10 3e 20 4c 12 3e 86 55 83 bd eb 77 8e bd
       0.14137976 0.14286852 -0.06412797 -0.06956466
000030 40 d6 ec bc a4 da 21 be 9f 05 59 be 65 2e f5 3c
       -0.028910756 -0.15806061 -0.2119355 0.02992935
000040 5e 65 88 3e 3d 42 79 3d 87 06 98 3e f7 67 87 be
       0.26639837 0.060854185 0.2969248 -0.26446506
000050 d3 3a b8 bb 7d b2 d4 3d 05 c6 48 3e 43 c6 a2 be
       -0.005622247 0.103856064 0.19606788 -0.31791887
000060 bc dd fd bd 66 6f 0e be c5 f2 34 be 2c 30 03 3e
       -0.12395808 -0.13909683 -0.17670734 0.12811345
000070 c8 97 a7 3e bd c5 9b be 13 3d 6b 3e 00 b5 60 be
       0.32732987 -0.304243 0.22972517 -0.21944046
000080 b5 8e 85 be 03 e5 67 be 49 2c 6f be b4 29 86 3d
       -0.2608544 -0.22645955 -0.23356737 0.06550923

conv.0.bias f4 [4]
000000 e9 42 77 3e 22 cc aa 3e a9 24 01 3e bf a6 e3 3d
       0.24146618 0.33358866 0.12611641 0.11115789

conv.1.weight f4 [4]
000000 25 88 87 3f 06 34 8a 3f 12 24 71 3f ed 21 64 3f
       1.0588423 1.0797126 0.94195664 0.89114267

conv.1.bias f4 [4]
000000 d2 96 50 bd be 2a c8 bc 26 d2 10 bd 45 3c 1d bd
       -0.050925083 -0.024434444 -0.035356663 -0.038387556

conv.1.running_mean f4 [4]
000000 5f d7 89 3f 53 00 71 c0 c9 f2 6a c2 fb 1e 8c c2
       1.0768851 -3.7656448 -58.737095 -70.06051

conv.1.running_var f4 [4]
000000 b2 cd e4 42 d0 5f a4 42 68 de 39 44 68 6a 80 44
       114.40175 82.18713 743.4751 1027.3252

conv.4.weight f4 [8, 4, 5, 5]
000000 fb 28 21 be 4f 1f ed bd 87 96 74 3d 97 73 ca 3d
       -0.15738289 -0.11578237 0.059713867 0.09885328
000010 cf 7d 1e bd b3 08 21 3d be 47 14 3d c2 64 8b bd
       -0.0386942 0.039314937 0.03620123 -0.068063274
000020 04 3d 2e bd 0f a8 ab bd 1a b9 9b 3c 4c c4 f9 bb
       -0.042538658 -0.08381664 0.019009162 -0.0076222774
000030 4f 4d 22 bd f9 25 8b bc 0a eb c9 3c 8b 01 9c 3d
       -0.03962451 -0.01698588 0.024648208 0.07617482
000040 e3 46 29 3e 2c fe cd 3b 8b 2d 9a 3c 48 c1 26 bd
       0.16530947 0.006286403 0.018820545 -0.04071167
000050 41 bd bc bd d7 7f c1 3c 48 ab 15 bd bb 00 46 3e
       -0.09215785 0.02362053 -0.0365403 0.19336216
000060 58 68 43 bb 11 70 ae bd cd da 2d bd ad 6c 26 be
       -0.0029816832 -0.08517469 -0.042444993 -0.16252394
000070 53 a6 cd 3d b8 fc e5 3d b4 d9 99 3d 65 36 4c 3d
       0.100414895 0.11229843 0.07512227 0.049856562
000080 3f 84 e1 3c aa 32 cf bc 23 e8 d9 3b 50 ec 11 3d
       0.02752888 -0.025292713 0.0066499873 0.035625756
000090 2c d9 ca bb e2 1e ed bb f1 f5 e4 3d 25 fe 5a 3d
       -0.0061904397 -0.0072363475 0.11179722 0.053465027
0000a0 ba 16 3b 3d 89 ed e2 3d 7a e9 a1 bc 43 9a 6e bb
       0.04567597 0.110804625 -0.01976465 -0.0036407865
0000b0 07 24 ba bc 27 b4 28 3d 7d 55 f8 bd 2b 47 15 3e
       -0.022722257 0.04118743 -0.121256806 0.1457793
0000c0 09 72 cd 3d 0e 97 d0 3d 77 92 8c bd e3 99 f3 3c
       0.10031516 0.101850614 -0.068638735 0.029736465
0000d0 68 b5 06 3d ce b6 c1 bd 0f 0b 4d 3d a2 a7 54 3d
       0.032887846 -0.09458695 0.050059374 0.05191768
0000e0 89 9c 36 bc ee ea 02 bd 44 6f c3 bd 0f a9 1d bd
       -0.011145719 -0.031962328 -0.095427066 -0.038491305
0000f0 ed a8 c0 3d 8a 94 87 3d fe d2 3b 3d 97 7b b2 bd
       0.0940722 0.066201285 0.045855515 -0.08714979
000100 88 65 87 3c ae 62 38 bd dc 20 8f bd f3 ee 46 3d
       0.016527906 -0.045015983 -0.06988689 0.048567723
000110 fb 59 47 bc 54 9c 6e bd a0 c0 3a 3c fc d8 96 3c
       -0.012167449 -0.058254555 0.011398464 0.018414013
000120 6c b2 61 3d fd 8e dc 3b 79 8c b8 bd 05 38 68 3c
       0.055101797 0.0067309127 -0.09011168 0.014173512
000130 f5 2f 68 bd c3 53 3b bd e5 7f cd bc 48 12 ba bd
       -0.05668636 -0.04573418 -0.025085399 -0.09085518
000140 01 5e 72 3d 3b 98 5a bd 38 65 1d 3d bf d3 82 bd
       0.05917168 -0.053367835 0.038426608 -0.063880436
000150 18 ac b7 bd be cd 47 3c 76 a0 95 bd e4 44 6a bd
       -0.08968371 0.012195049 -0.07305996 -0.057194605
000160 28 2b 34 3d a5 17 be 3d fb 52 8f 3c b5 0e b3 bb
       0.04398647 0.092818536 0.017495623 -0.0054643997
000170 20 b3 a3 3d 6f e4 75 bd ab 27 4e 3d 0c 69 e1 bd
       0.0799315 -0.060032304 0.0503308 -0.11006364
000180 03 4c 52 bc b0 be a3 bd 78 90 e3 bb aa c0 d3 3c
       -0.012835505 -0.07995355 -0.0069447123 0.025848705
000190 55 58 d0 3d 16 60 2b bd 6b 53 aa bc 13 7e 68 bd
       0.10173098 -0.04183968 -0.02079173 -0.05676086
0001a0 89 e4 88 3d 95 13 bb 3d 3c ec 33 bb 4c 4d 61 bd
       0.066842146 0.09134594 -0.002745404 -0.055005357
0001b0 e8 c1 ce 3d f3 b3 6f 3c a7 ee 59 3c d7 05 7a bd
       0.100955784 0.014630306 0.013301528 -0.061040726
0001c0 33 d8 e2 bd 0c bd ca bd c6 6e b1 bd 39 74 2b 3d
       -0.11076393 -0.09899339 -0.086637065 0.041858885
0001d0 b1 63 81 bd 45 6d 5a 3c 7d 27 96 bd 7b 6f 3a be
       -0.06317843 0.013331716 -0.073317505 -0.18206589
0001e0 72 a0 15 bd 8b a9 bb bd be cf a4 3d f4 1d be 3d
       -0.036529966 -0.09163197 0.08047436 0.09283057
0001f0 63 e0 e9 3d 68 e9 52 3d c0 6c 35 3d e4 5c f0 3c
       0.114197515 0.051492125 0.044293165 0.029341169
000200 32 0f a9 bd 90 d4 0d 3d d3 9a 8d bb 00 c4 26 bd
       -0.082548514 0.034626544 -0.004321435 -0.040714264
000210 17 78 a6 bd 12 11 a1 bd 4f af 91 bd 12 39 c6 3b
       -0.08128374 -0.07864584 -0.071135156 0.006049284
000220 95 d4 24 3d 32 00 e1 bd 5d f5 44 bd df 28 a9 bc
       0.040241797 -0.109863654 -0.04808556 -0.020649372
000230 29 00 54 bd 1f 84 8d bd a6 e4 ba bb ea 2e df 3c
       -0.051757965 -0.06909966 -0.0057035265 0.02724405
000240 86 d6 df bd 5d e2 06 be 90 ca d2 bd f4 3e 03 be
       -0.10929589 -0.13172288 -0.10292542 -0.12816983
000250 c4 4a c7 bd 0b da b3 3d 88 75 8e bc ed b3 dd 3d
       -0.09731057 0.08781823 -0.017390028 0.10825334
000260 0a b2 9d 3d 15 76 9a bc db 93 86 3d 41 e5 e3 3c
       0.07699974 -0.018855134 0.0657117 0.027819278
000270 87 0a 1a 3d e2 47 98 bd 3e 94 b5 bc ad c1 e0 bc
       0.037607696 -0.074355856 -0.022165414 -0.027436102
000280 b0 56 3d bd f4 6e 9b bd 84 29 19 bc 13 dc 4e 3d
       -0.04622525 -0.07589522 -0.009348277 0.050502848
000290 f8 f2 f3 3c ff 86 94 bd b3 b2 25 bc 9a 0c 34 3d
       0.029778942 -0.07252311 -0.010113406 0.04395733
0002a0 ce 7b 87 3c 74 56 81 bd d1 10 8b bd 75 00 4b bd
       0.016538527 -0.06315318 -0.06790317 -0.049560983
0002b0 e0 d8 c9 3c 7e e8 31 bc f3 8d 8f 3d ba 1d c4 3d
       0.024639547 -0.010858653 0.070094965 0.095759824
0002c0 f2 b2 5e 3d af 3d 51 bd 52 77 23 3d 4e c8 c9 bc
       0.054369874 -0.051084217 0.039908715 -0.024631646
0002d0 f4 ec b4 3d 6e 81 85 3a 94 ee af bc 16 38 e0 bc
       0.08834258 0.0010185668 -0.021476068 -0.027370494
0002e0 d9 48 b0 bd c0 1f cb 3c 93 e4 fe bc e0 7b af 3d
       -0.086076446 0.024795413 -0.031114852 0.08568549
0002f0 5b aa af 3d 34 b2 3d bd 29 12 50 3c b1 20 15 bc
       0.085774146 -0.046312526 0.012699642 -0.0091020325
000300 75 5c eb bd 90 a5 89 3d 6c d6 9f 3d 97 22 b2 bd
       -0.11492244 0.06721032 0.078045696 -0.08698004
000310 05 d7 2b bd 27 b7 e0 bd 3f df 69 bd 01 ca d6 bc
       -0.041953105 -0.109724335 -0.05709767 -0.02621937
000320 88 3b a5 3d 38 27 3d bc f9 a2 9f 3c 87 5c 27 bc
       0.08067995 -0.011544995 0.019486891 -0.010214931
000330 23 e9 83 3c 7a 5d 0d 3c 3d 5f 96 bd 37 2a 22 bd
       0.01610238 0.008628244 -0.07342384 -0.03959104
000340 55 3b c6 bc ac 1b ea bd 53 f8 ba bd d3 b2 d5 3d
       -0.024198214 -0.11431059 -0.09129395 0.10434499
000350 15 06 63 3c 86 48 b8 bd a0 fd 47 3c ff 79 db bd
       0.013856431 -0.08998208 0.012206465 -0.10716628
000360 dd 11 aa bb 5f 70 b6 3d a7 68 5e 3d 25 d8 54 bd
       -0.0051901178 0.08908152 0.054299023 -0.051963944
000370 c6 89 0a bd a4 c3 d2 bd ab 39 b7 bd 59 9f b6 3d
       -0.033822797 -0.10291222 -0.08946546 0.08917112
000380 83 a8 a5 bc ab 89 f0 bd ac 05 32 bd aa b2 b0 3d
       -0.020221954 -0.11745008 -0.04346244 0.086278275
000390 68 aa 5c bd 24 50 bb 3d 94 e9 23 3d df 90 e5 3c
       -0.05387345 0.09146145 0.04001768 0.028023181
0003a0 d3 b2 2e bc 15 05 9d 3d 3a cf 2b bd b4 ac fe bc
       -0.010662752 0.07666985 -0.041945674 -0.03108821
0003b0 0f b9 12 be 9c 47 e1 3d 74 0f 1e be 67 72 c6 3d
       -0.14328407 0.109999865 -0.15435582 0.09689789
0003c0 3c 9c 13 3d 16 5d b1 bd ce 20 48 bd b8 79 2b bd
       0.03603767 -0.08660333 -0.04885941 -0.041864127
0003d0 c3 de fd 3c a7 1a bd bd e7 88 22 bd 98 46 a0 3a
       0.03099001 -0.09233599 -0.03968134 0.001222807
0003e0 21 52 c8 3d 85 25 27 be 99 f4 60 bd d2 bb 0d 3d
       0.0978129 -0.16322906 -0.054920767 0.034602948
0003f0 d7 76 98 3c f6 f5 56 bd 51 5b 95 3c ad 77 d5 bc
       0.018611355 -0.05248066 0.01823202 -0.026058042

conv.4.bias f4 [8]
000000 cc cc 21 3d f1 94 63 bd d4 18 0f 3d 84 42 20 bd
       0.03950195 -0.055561963 0.034935787 -0.039125934
000010 53 89 45 3d 96 ac c8 bb 47 e3 c7 bd 8b e9 c7 3c
       0.048226666 -0.0061240895 -0.097601466 0.024403354

conv.5.weight f4 [8]
000000 03 ad 69 3f b3 af 84 3f 12 46 84 3f 58 23 90 3f
       0.9127962 1.0366119 1.0333884 1.1260786
000010 2e 08 79 3f 29 63 76 3f ee 69 85 3f 6f 2b 80 3f
       0.97278106 0.96245056 1.0422952 1.0013255

conv.5.bias f4 [8]
000000 46 07 c0 bd 4b ee 14 bd 8d 13 3e bd 89 42 53 3b
       -0.09376387 -0.036360066 -0.046405364 0.0032235703
000010 5e 7b bd bd c8 02 1c bd 97 27 6e 3c f4 3d 91 bc
       -0.09252046 -0.03808859 0.014535806 -0.017729737

conv.5.running_mean f4 [8]
000000 ec 4b e4 3c ea 15 d4 be 84 06 a5 be 14 2d 43 be
       0.027868234 -0.4142297 -0.32231534 -0.19060165
000010 e3 7b 06 bc b3 b6 0b bf b6 16 8b be df fe 8e be
       -0.008208248 -0.5457565 -0.27165765 -0.27928826

conv.5.running_var f4 [8]
000000 68 f7 96 3e ab b2 10 3f 60 aa ec 3e d8 f4 a3 3e
       0.2948563 0.56522626 0.46223736 0.32022738
000010 1a 25 2e 3e 03 46 67 3f 55 8e 3d 3e 57 00 ba 3e
       0.1700634 0.90341204 0.18511327 0.36328384

conv.8.weight f4 [16, 8, 7, 7]
000000 8d be 06 3d 0c c0 87 3c 06 40 13 3d 99 74 c7 3c
       0.032896567 0.016571067 0.03594973 0.02434759
000010 3f 88 04 3d e1 71 95 3d 43 81 8c 3b 0b 2c 84 3d
       0.032356497 0.07297111 0.00428787 0.06453713
000020 3b 47 11 3c 47 85 51 bd 52 ca 10 3c 48 d4 01 3d
       0.00886708 -0.051152494 0.008837299 0.031696588
000030 1f 3a d6 3c 95 58 fb 3c c6 1d fa bb 34 76 63 bd
       0.026150761 0.030681888 -0.007632944 -0.05553265
000040 b8 7a f2 bc f6 cf 1e bd 57 1d 19 3d c4 ac 4e bc
       -0.029599532 -0.038772546 0.037381496 -0.012614433
000050 97 44 05 3b a1 8f 06 bd d6 a6 89 bc 35 58 48 3d
       0.0020335072 -0.03285182 -0.016803186 0.048912246
000060 d0 c2 2b 3d ec 69 bd 3c 4e 0a 66 bd 28 cf a4 3c
       0.041933835 0.023121797 -0.05616217 0.020118311
000070 2f dc 3e bd e5 dd a0 bd 70 e4 30 bd c7 06 4f 3d
       -0.046596702 -0.07854823 -0.043186605 0.050543573
000080 69 bb 7f 3c c9 69 71 bd 30 36 c1 3c ba 24 bb bc
       0.015608647 -0.058938775 0.023585409 -0.022844661
000090 60 e7 ec 3c 18 1a 21 bd 02 f8 c3 bb ef 9e 1a 3d
       0.028918922 -0.039331526 -0.0059804926 0.037749227
0000a0 dd ec c4 bc 32 25 af 3d 37 a6 2e bc d6 bd 39 bd
       -0.024038726 0.08552016 -0.010659746 -0.045347057
0000b0 ea 30 78 3d e2 23 f1 bc cb 64 84 bc 28 f4 f2 b9
       0.060593523 -0.029436056 -0.016161343 -0.00046339747
0000c0 c6 1d b0 3c 89 21 d9 bc df 92 61 3d 58 05 c0 bb
       0.021498572 -0.026505249 0.055071708 -0.005860012
0000d0 c0 8e 7f bb a0 83 6d bc f0 27 15 bd ae 6a 95 38
       -0.0038994998 -0.014496714 -0.03641504 7.124744e-05
0000e0 43 24 d3 3c 9d ec 3a 3d 32 0b 57 bb be c4 ad 3a
       0.025774127 0.04563581 -0.003281307 0.0013257486
0000f0 78 69 aa 3c 71 92 f5 3c 64 03 ba bd e6 7b d7 3c
       0.020802245 0.029977055 -0.09082678 0.026304197
000100 df d4 04 3c 46 1c b2 3c d1 59 d0 3d 96 5d ec b9
       0.008107393 0.021741997 0.10173381 -0.00045083155
000110 28 42 3a bd 43 59 2d bd 24 d0 ec 3b d5 d6 a5 bb
       -0.045473248 -0.042321455 0.0072269607 -0.0050610104
000120 2e 83 b5 3c 40 40 44 bc 3f f0 27 bd cc 0e 9d bc
       0.022157278 -0.011978209 -0.0410006 -0.019172095
000130 6d 91 8e bb b3 82 58 3d 25 47 55 3c b8 ed f9 bc
       -0.004350832 0.05285902 0.01301745 -0.030508861
000140 fc 75 ef 3c 44 26 12 bd 02 c4 36 3b 83 0e 8c bc
       0.029231064 -0.035681024 0.0027887826 -0.017096763
000150 da ea 4b 3c 17 02 13 bc b7 e5 15 3d 90 b7 79 3d
       0.01244613 -0.008972666 0.036596026 0.060966074
000160 59 3c 62 bd d3 a8 15 3d 6d 0e 41 bc 0b 6e 33 3b
       -0.055233333 0.036537956 -0.0117832245 0.0027378823
000170 84 ae e5 3c 0e a8 a3 ba 61 d5 b8 bc c2 7c 48 bc
       0.028037317 -0.0012485997 -0.022562684 -0.012236776
000180 cb 30 04 3d 93 7d df 3c 41 dc 0f 3c 36 41 f2 bc
       0.032273095 0.027281558 0.00878054 -0.02957211
000190 68 e9 82 bd 1e 96 2b 3d 0c 0b 30 3d 58 ed 81 bb
       -0.06392175 0.04189121 0.042979285 -0.003965061
0001a0 69 86 48 3b a6 55 44 3d 9f ad 4c bc e2 82 8a 3c
       0.0030597693 0.047933243 -0.012492566 0.016908113
0001b0 70 73 74 3d 41 f5 df 3c 58 08 56 3d 48 f5 85 bd
       0.059680402 0.027338626 0.05225405 -0.06540924
0001c0 7a f3 ac bc c8 b8 1c 3c bd f4 38 bd 59 30 23 3d
       -0.021112192 0.00956554 -0.045155276 0.03984103
0001d0 ec 2e be 3c 3b 93 78 bb 0b 87 1c 3d d2 a2 87 bd
       0.023215733 -0.0037929553 0.038214725 -0.066228524
0001e0 41 fe 29 3c bf c2 b3 bc 8b f8 c5 3c 24 1d e8 bc
       0.01037556 -0.021943448 0.024166366 -0.028334208
0001f0 70 10 85 3b 60 3e ae bc 8a c0 9e bd c1 9b 9d bd
       0.0040607974 -0.021269977 -0.07751568 -0.07695723
000200 22 50 be 3b 55 c1 f1 3c 4c e0 31 bd 2f df a7 3d
       0.0058078924 0.029511133 -0.043426797 0.08196866
000210 46 cf 9b bc e5 2f 87 bc cf cb a3 3c 9d 66 80 bc
       -0.019019734 -0.01650233 0.019994644 -0.01567393
000220 46 85 86 bc 86 52 92 bd c4 d0 e6 39 20 4f 10 bd
       -0.016420972 -0.07144646 0.0004402456 -0.03523171
000230 30 6e 32 3b e3 57 4c 3d 1f 29 1c 3d 8d c9 6b bd
       0.0027226321 0.049888503 0.038125154 -0.05756526
000240 c9 7c 05 be fd 79 9b 3c 30 9a dd bc a1 10 cf bb
       -0.13035883 0.018979067 -0.027051061 -0.006319121
000250 f9 23 21 bc c7 7f bb bc 38 c3 be bc c6 5f b9 bc
       -0.009835237 -0.022888077 -0.023286447 -0.022628676
000260 91 e8 c4 3c fc 6d 19 3b 29 fa a4 39 24 03 26 3d
       0.024036678 0.0023411503 0.000314669 0.04053034
000270 ce f4 95 bd 7b 13 b5 bd 4b 9d a2 bd ae fa ae bc
       -0.073220834 -0.08841606 -0.079401575 -0.021359768
000280 4a ed 48 3d 87 78 8d 3c 6e bd 1b 3d 1d 91 3e bd
       0.04905442 0.017269386 0.03802245 -0.04652511
000290 35 20 eb bc 2e bb 07 3c b6 2f 0b 3c dd 3a e9 bc
       -0.028701881 0.008284373 0.008495262 -0.028470451
0002a0 55 7a c3 bc 40 2f 6a 3c 86 cd d3 bc c1 97 2a bd
       -0.023862043 0.014293492 -0.025854837 -0.04164863
0002b0 95 f0 52 3c d1 22 a6 bb 85 d7 35 3d 76 04 b1 bc
       0.012874742 -0.0050700684 0.04439499 -0.021608572
0002c0 81 87 52 3b bd 12 22 bd 52 d3 c6 bc 97 c3 cd bd
       0.0032124224 -0.03956865 -0.024270687 -0.100470714
0002d0 b2 01 ca bc b7 9f 2b bc 29 d6 1b bd 9b 68 89 3d
       -0.024659012 -0.010475091 -0.038046036 0.06709405
0002e0 8d c4 cc bc ef 92 58 bc 4e 81 17 bc cc 56 c6 3c
       -0.024996066 -0.013218625 -0.009247137 0.02421131
0002f0 15 b8 a2 b9 91 ca dc 3c b7 31 38 bc 07 da 19 bc
       -0.000310362 0.02695206 -0.011242322 -0.009390361
000300 97 0d ea bc 3b 2d 8b 3b fa d7 09 bc e0 c7 f9 3c
       -0.028570933 0.0042473353 -0.008413309 0.030490816
000310 45 4a ba 3c 00 e0 8b 3c 6b 7b 0a bc a8 32 30 3d
       0.022740493 0.017074585 -0.008452277 0.04301706
000320 bb e1 c7 bd 91 51 bf bc 35 fa 40 3d 16 7c 53 bd
       -0.097598515 -0.023354324 0.047113616 -0.05163201
000330 cb d2 18 bb 88 b3 5c bd 63 dd fa 3c 24 8d 1d bd
       -0.0023319002 -0.05388215 0.030623144 -0.03846468
000340 00 9d ce 3c 49 ff 3d bd 6a e7 4c 3b 37 a1 6e 3d
       0.025221348 -0.046386037 0.0031265863 0.058259215
000350 a9 ad 51 3c 06 2e 0c bc c2 ce 6e 3c aa bf 2a bb
       0.012797751 -0.008555895 0.014575662 -0.0026054182
000360 a2 5e 15 bc 09 58 ec 3c 8f 84 e7 bd f9 31 f8 3b
       -0.0091168005 0.028850572 -0.113045804 0.0075743166
000370 e3 cf ae 3c 39 29 84 bb 00 47 eb bc 90 ea 1b bd
       0.021339362 -0.0040332344 -0.028720379 -0.038065493
000380 7f cd 65 3c d9 aa 4a bd d2 60 36 3c 3e 10 4f bd
       0.014026045 -0.04947934 0.011131482 -0.0505526
000390 da 05 e4 bb af 09 a0 bd b4 74 aa bd 86 89 12 3d
       -0.0069587054 -0.07814347 -0.083230406 0.035775684
0003a0 f9 64 8c 3b 01 3b 73 bd 7e 67 20 bd 9d 03 c5 3c
       0.004284498 -0.059382442 -0.039161198 0.024049575
0003b0 33 85 79 bd 4c 14 51 3d cd 1a 8c bd d9 b2 19 bd
       -0.060918044 0.051044747 -0.06841049 -0.037524078
0003c0 b0 e6 0c bd 4a 3f 9a bc 47 e3 35 bd 69 9d 6f 3d
       -0.03439969 -0.018829007 -0.0444062 0.058499727
0003d0 48 8f 37 3d cf 9b 4d 3d e2 bb d8 bb 82 da 1a bc
       0.044814378 0.05019742 -0.0066141943 -0.00945151
0003e0 f7 b4 81 3d c7 b2 8d 3c 92 de 21 3c ac e5 95 3c
       0.063333444 0.017297162 0.009879725 0.018297993
0003f0 0d 72 75 3d 22 7b c7 3c fb 19 ab bb bf 47 f6 3b
       0.05992322 0.024350706 -0.005221603 0.007515877

conv.8.bias f4 [16]
000000 0b 7e 9c bd 48 ab 81 3d 03 fa 45 3c 7e 3f b9 bc
       -0.07641228 0.063314974 0.012083533 -0.022613283
000010 6a 75 11 bd 14 bc 2a 3d 15 b7 a2 37 97 0c 6e bd
       -0.035512365 0.04168327 1.939716e-05 -0.058117475
000020 b8 b2 32 bb 1f f3 ee 3c 65 3a e5 3b d3 5e 46 3d
       -0.002726717 0.029168664 0.0069954866 0.048430275
000030 ca f0 89 bb b5 4c cb bb 0b cd e6 3c 3c 62 37 bd
       -0.0042096125 -0.0062042126 0.028173944 -0.044771418

conv.9.weight f4 [16]
000000 86 2f 81 3f 45 04 85 3f 6c 68 82 3f 19 18 92 3f
       1.0092628 1.0391928 1.0188117 1.1413604
000010 d9 27 79 3f a7 e3 7e 3f a5 0f 87 3f 7a 56 7c 3f
       0.9732643 0.9956612 1.0551649 0.9856945
000020 e3 98 80 3f 45 bf 83 3f 0b b6 91 3f be 4e 8c 3f
       1.0046657 1.0292746 1.138368 1.096153
000030 06 eb 87 3f 05 ef 80 3f 9f 12 8e 3f a0 8d 89 3f
       1.0618598 1.0072943 1.1099433 1.0746346

conv.9.bias f4 [16]
000000 65 36 53 bd 4f f1 2f bd 0a 46 99 bd 40 2f 75 bd
       -0.051565547 -0.04295474 -0.07484062 -0.059859514
000010 ca bd d1 bd a7 04 92 bd 11 d4 39 bd b5 92 70 bd
       -0.102412775 -0.071297936 -0.045368258 -0.05873366
000020 ee 60 ab bd 57 67 b6 bd d2 da b1 bd ce c9 40 bd
       -0.08368097 -0.08906429 -0.08684315 -0.047067456
000030 5e 92 35 bd 16 a4 e7 bc 70 9b 7e bd e3 19 96 bd
       -0.04432904 -0.028276484 -0.062159956 -0.07329156

conv.9.running_mean f4 [16]
000000 0a a0 87 be d2 44 1c be 31 29 10 3f ab 3e 30 be
       -0.26489288 -0.15260628 0.56312853 -0.17211406
000010 8b c0 9d be e1 00 8e be 57 c2 05 3e c5 ab 68 3e
       -0.3081096 -0.27735046 0.13062416 0.22721775
000020 33 c4 79 bf 0f 81 15 be af 15 92 bd 32 62 8d 3e
       -0.97565 -0.14600013 -0.07133042 0.2761398
000030 3b 15 5f be 7f 2a 40 be db dc 23 bf 4c db fc bc
       -0.21785443 -0.18766211 -0.64008874 -0.030866288

conv.9.running_var f4 [16]
000000 01 b4 55 3e c1 98 05 3e c6 6a 2d 3e 56 46 34 3e
       0.20869447 0.13046552 0.16935262 0.17604956
000010 57 d7 77 3e 68 94 b6 3e f3 77 15 3e 62 c9 84 3e
       0.2420324 0.356601 0.14596538 0.25934893
000020 37 aa af 3e 9f 41 5d 3e 5b 01 62 3e c3 bd 58 3e
       0.3430955 0.21607064 0.2207083 0.21166138
000030 dd 19 1d 3e 78 fa 89 3e aa eb 83 3e 64 ee 5d 3e
       0.15341897 0.26948905 0.25765735 0.2167297

linear.weight f4 [4, 784]
000000 3e 30 32 bd 15 1b 82 3c a3 ea 41 3d 49 0c 5c bd
       -0.04350304 0.015882054 0.047342908 -0.053722654
000010 22 24 54 3b da ad 01 3c 42 c5 97 3c e5 b8 00 3c
       0.003237017 0.007914985 0.018526677 0.007856582
000020 af ed da 3b 44 fc 86 3d 0d 93 a3 bc 22 61 24 bd
       0.006681166 0.065910846 -0.01996758 -0.040131696
000030 0c a9 fc bc 4f 70 a3 bc 62 e9 7e bc 95 6c 28 3d
       -0.030842327 -0.019951014 -0.0155585725 0.041119177
000040 61 e4 cb 3c da 0b b8 3c ef 35 98 bc 30 b9 28 bd
       0.024889173 0.022466589 -0.018580405 -0.041192234
000050 ad 51 01 3d ad 81 f6 3b 85 3a fa 3c 6e 48 89 3a
       0.031572033 0.007522783 0.030545482 0.0010473856
000060 90 29 1b bb b8 41 1c bb 74 1a 20 3d 32 f6 c5 ba
       -0.0023675896 -0.0023842882 0.039087728 -0.0015103279
000070 d5 b3 9c 3c 5e c7 a7 3c 36 df 98 bc c4 ae 7c bc
       0.01912872 0.020480808 -0.018661123 -0.015422527
000080 b1 3b 49 bd 5d ef b3 bc 52 c3 0e bd 06 7d e5 3c
       -0.04912919 -0.021964723 -0.03485424 0.028013717
000090 a5 77 87 bd 28 02 27 3d 4d bf 8d bc 78 3c 3c 3d
       -0.06614617 0.04077354 -0.017303133 0.045956105
0000a0 84 2c cb 3c 7e d7 1a 3d 4a 38 10 3d 26 fc 99 3c
       0.0248015 0.037803166 0.03520993 0.018796992
0000b0 6d 05 de 3c fc 8c 08 3d b6 d6 2c bc c7 37 8d 3d
       0.027102197 0.03333758 -0.010549238 0.06895404
0000c0 15 b5 93 bc 39 fc d9 bc 61 9c 69 3c 07 49 36 3b
       -0.018030683 -0.026609527 0.014258475 0.0027814524
0000d0 91 45 cc bc a9 97 03 bd 6b ba 9c bc cb af bb 3c
       -0.024935516 -0.032127056 -0.01913186 0.022910973
0000e0 ef f2 09 bc 46 6e 9c bc 40 cc c4 bc c4 65 68 3c
       -0.008419736 -0.019095551 -0.024023175 0.014184419
0000f0 10 5c c1 bc c5 1e 6c bc 54 8d 3b bc aa 3a 48 bd
       -0.02360347 -0.014411633 -0.0114472695 -0.04888407
000100 3f 44 94 3c 20 3a e4 bc c9 f1 1d 3b ac 5f 18 bd
       0.018098949 -0.027859747 0.0024100414 -0.037200615
000110 e4 60 6a bb fb e8 1f bd 46 43 4b 3d 9f b0 97 3c
       -0.0035763318 -0.039040547 0.049624704 0.018516837
000120 b6 17 65 bc 7a cd 22 3d 8f fd 02 bb 2e 14 95 bb
       -0.013982704 0.03974674 -0.0019987558 -0.0045495247
000130 9a 5b 12 3d 2a 64 ae 3c 8c 56 cd 3b ee e3 20 3d
       0.03573189 0.021287996 0.0062664207 0.03927987
000140 35 dc 30 bd 6e 56 2d bc b6 c0 05 3d 93 ec 16 3d
       -0.043178756 -0.0105796885 0.032654487 0.03684671
000150 62 a8 0e bd 55 24 92 3d 79 57 58 bd 81 c7 e3 3c
       -0.03482855 0.07135836 -0.052817795 0.027805092
000160 d4 8e 1d bb 52 d2 10 3d af 05 ea bb 04 93 e2 39
       -0.002404143 0.035356827 -0.007141791 0.00043215614
000170 68 92 92 bb 4d 1a 9b 3b 35 b0 23 bd 87 ad a5 3c
       -0.0044730194 0.00473336 -0.039962966 0.020224346
000180 e8 15 17 3b 67 57 97 3d 00 9c f6 ba e3 73 42 3d
       0.0023053829 0.073897175 -0.0018814802 0.0474738
000190 9e 2d 8c 3c 38 55 17 3d f2 7e b3 3c 12 28 b9 bc
       0.017111596 0.036946505 0.021911118 -0.022602115
0001a0 78 45 34 3b 45 52 c4 bc f9 17 05 3d c3 7b e9 3c
       0.0027507227 -0.02396501 0.032493565 0.028501397
0001b0 37 0f 00 bd 79 75 65 bd 0d 42 3f bc 6d db 6c bc
       -0.03126451 -0.056020234 -0.011673463 -0.014456612
0001c0 5a d6 2f 3d 27 70 03 bd 6e e5 43 bd 73 3a 16 3d
       0.04292903 -0.03208938 -0.047826223 0.036676835
0001d0 f4 8e 37 bc 4c 3f 05 3d 08 e7 df 3b b2 ca 35 bc
       -0.011203516 0.032531068 0.006832961 -0.01109569
0001e0 29 b8 1e 3d 50 0a 11 bc de 15 eb 3b 45 2e c0 3c
       0.038749848 -0.008852556 0.0071742376 0.023459563
0001f0 02 aa 61 3d be af 8d 3b c6 a4 9f bc 29 80 2a 3c
       0.055093773 0.0043239286 -0.01948775 0.010406532
000200 42 a2 43 bc 50 c5 1f bd 06 69 4a bc a2 83 66 bc
       -0.011940541 -0.03900653 -0.012354141 -0.01406947
000210 22 1d b9 3c c4 3b ba 3c 95 53 19 bd 7f 05 d3 bc
       0.0225969 0.022733577 -0.037433226 -0.025759457
000220 3a 33 5b bd b1 cf 04 bc 12 00 29 3c bb ce 03 bd
       -0.05351565 -0.008106158 0.010314958 -0.032179575
000230 df 80 04 3d c1 22 2a bd 11 65 94 3b f1 b3 e6 bc
       0.032349464 -0.04153705 0.0045286496 -0.028161975
000240 7b 9b d5 3b 93 b6 2e bd 11 7a d0 3c bb 9b f0 3a
       0.006518779 -0.042654585 0.02544883 0.0018356958
000250 06 52 70 b9 f8 58 09 3c 8b 6a fa bc 30 fb 3a 3d
       -0.0002291874 0.008383028 -0.030568382 0.045649707
000260 57 9b ea 3a e4 7e 07 bd 00 07 3c bc 28 7a 46 bd
       0.0017899078 -0.033079997 -0.011476278 -0.04845634
000270 3e 11 9e 3c 69 47 90 bc 17 e9 ef bc 1e 97 da bc
       0.019295331 -0.017612176 -0.02928595 -0.026683386
000280 30 98 00 3c d0 c9 64 bc b7 59 c6 bc 22 b9 a0 bc
       0.007848784 -0.0139641315 -0.024212701 -0.019619528
000290 91 34 83 bc d0 9b 14 3b 11 74 26 3b 3a 2c 00 3d
       -0.016016277 0.002267588 0.002539877 0.031292178
0002a0 ea a3 1f 3d 27 6a 1c bc 29 b1 c9 bc 96 df 93 bd
       0.03897468 -0.009546793 -0.02462061 -0.0722038
0002b0 bd 62 27 3c 0b dd 39 bd 6c 7c bc 3c 6b 6d 5a 3c
       0.010216412 -0.04537682 0.023008548 0.013331751
0002c0 cf f2 8f bc 81 87 9e bc 3a d4 a2 3c 91 59 9b bc
       -0.017571835 -0.019351723 0.019876588 -0.018963607
0002d0 2a 30 a2 3c f7 2e a0 3c fa ae 56 3b e7 8e 11 3c
       0.019798357 0.019553645 0.0032758103 0.008884168
0002e0 0e 08 6b 3d aa 2e 23 bd 65 8d 9e 3b 8e 28 b4 bc
       0.05738073 -0.039839424 0.004838633 -0.021991994
0002f0 14 70 11 3c ee df 87 bd 70 2b 93 3c 25 9e 3b bb
       0.008876819 -0.06634508 0.017965049 -0.0028628197
000300 1b 2d 1c bd 39 78 b5 3c f3 3a 6d 3d ee 24 c6 3d
       -0.038128953 0.022152053 0.057917546 0.096750125
000310 54 24 ec bc 83 44 bf bc bf b6 04 bd 57 3a 10 bd
       -0.028825916 -0.023348099 -0.032400843 -0.035211887
000320 16 32 e1 3c ec 78 38 bd c2 c7 2b 3c 7b a2 31 3c
       0.027489703 -0.045037195 0.010484638 0.010841961
000330 d9 39 44 bd be 84 02 3c c6 e8 d5 3c df 2e c6 bc
       -0.04790673 0.0079662185 0.026111972 -0.024192272
000340 68 6f 0f bc 7f 50 6b 3c 79 d1 89 3c e0 e2 dc 3c
       -0.008754589 0.0143624535 0.016823517 0.026963651
000350 74 13 76 bc 53 f9 15 3d a1 a6 d5 3b ff 19 31 3d
       -0.015019286 0.036614727 0.006520108 0.043237682
000360 ee 2f bb 3d b5 00 7d bb 33 de ba bb 55 ef 0d 3d
       0.09140001 -0.0038605158 -0.0057027577 0.034652073
000370 b8 6a a9 3c 4e c9 59 3c 58 71 91 3b 63 c4 95 3c
       0.02068077 0.013292624 0.0044385605 0.018282121
000380 d9 e8 94 bc 00 c0 cf bc 95 09 3b bc 69 7e 7e 3b
       -0.018177437 -0.025360107 -0.011415859 0.003883267
000390 23 7b 11 bd 9a 9f 70 bb 0f 05 82 3c e0 17 68 3c
       -0.035517823 -0.0036716224 0.015871553 0.0141658485
0003a0 8f 04 17 3c b9 b8 f4 bb 3d 83 07 3d 12 33 11 bc
       0.009217395 -0.0074683097 0.033084143 -0.008862274
0003b0 b9 da ec bb 68 18 98 3c 21 cf 37 ba f4 9d 07 bd
       -0.007228222 0.018566325 -0.00070117606 -0.03310962
0003c0 cc 5a 9c 3d 13 da 71 3d 1b d2 01 3d 27 49 a5 bc
       0.07634506 0.059045862 0.031694513 -0.020176483
0003d0 e1 41 85 3c 94 6a fd ba d4 ee fd bb d8 0c f4 3c
       0.016266765 -0.0019334131 -0.007749418 0.02979128
0003e0 9b 2e 30 bd 76 42 75 3d 70 20 12 bd a9 1f b2 3c
       -0.043013196 0.059877835 -0.035675466 0.021743612
0003f0 a1 a1 8c bb 45 15 3f 3d 3a 9b 6a 3c 0b f6 29 bb
       -0.0042917286 0.046651144 0.014319235 -0.0025934007

linear.bias f4 [4]
000000 70 83 85 3b 7a a1 96 3c 90 04 20 3c b9 7c 94 bc
       0.0040745065 0.018387545 0.009766713 -0.018125879
